mujoco/gail/save_model/ckpt_4000_gail.pth.tar (torch_old, 142324 bytes, 16 tensors)

fc1.weight f4 [100, 11]
-0.01677677 0.075463645 0.98330283 -0.020919107 -0.033076927 -0.023284031 -0.5658764 1.0378512
0.56428194 0.52891535 0.2637942 0.7162706 -0.5578802 -0.2867107 -0.40966955 0.18607168
-0.17475498 0.15028147 -0.48599872 0.13140713 0.29738548 0.23313604 0.18114783 -0.39333576
-0.63417035 0.03181749 0.0512911 -0.8183752 0.09420316 -0.12798668 0.008861951 -0.10478412
0.073590375 0.4300499 -0.3938046 -0.37708056 0.43132368 0.05797708 0.11020534 -0.504244
-0.0608221 -0.1081262 0.50238425 -0.45898473 0.22972038 0.5984731 0.45368478 -0.24906261
-0.29721045 -0.13097626 -0.41625994 0.3953528 0.48715696 0.06436156 0.0012192777 0.3812176
-0.53806317 0.26454926 0.06380816 0.5789758 -0.073315926 0.27438757 -0.5458689 -0.17540185
0.5820217 0.21284018 0.2952464 -0.5764695 0.99293154 -0.16899759 0.13631222 -0.20727886
0.038587842 -0.37125158 0.55802053 -0.2924197 -0.105281755 0.12248143 0.69192994 -0.4776072
-0.074482314 0.37773693 -0.1496315 0.17146958 0.51403815 -0.5837589 0.2800762 0.48734513
-0.1415511 -0.10976034 0.07543635 -0.3156144 0.5820571 0.105334416 0.25161034 -0.38896185
0.6923058 -0.888732 0.27365813 0.35176316 0.11364844 -0.06420761 0.12726687 0.41757256
-0.4857638 0.4643036 0.1403457 0.35839117 0.4719198 -0.3457474 -0.34348017 0.39893538
-0.7163364 -0.28101575 -0.17367743 0.28893468 -0.37669086 0.96150374 0.1385 0.04146169
-0.105339795 -0.06267618 -0.29129377 1.0102835 -0.12524742 0.38595095 0.40747827 -0.12242226
-0.22688483 -0.048570238 -0.6345428 0.68049085 -0.10408888 0.5027225 0.43113258 0.2151364
0.25091636 -0.44921738 0.38723618 -0.64182985 0.40093848 -0.059779435 -0.19898845 0.43421772
-0.16364326 -0.6445846 0.48082426 0.18750149 -0.49331883 0.2155138 -0.21963191 0.42564043
-0.010298519 -0.35697597 -0.3639007 -0.08649221 0.6244903 0.28159854 -0.35934466 -0.32768226
0.18806301 0.5752327 0.054083485 0.09019842 0.06759557 -0.24669772 -0.13175088 0.2042745
0.09794922 0.11469276 0.5218205 -0.56344414 0.09675333 0.20649427 0.43442822 -0.14534923
0.61840516 -0.7306725 0.66078043 0.2619573 0.40824074 0.15688603 -0.6294265 0.18038501
0.66989833 0.006962869 1.0308884 -0.27073964 -0.42869347 0.49740654 0.02488688 0.35164922
-0.42940366 0.042148124 -0.13200563 0.341668 -0.2924196 -0.53306764 0.56725746 0.3584175
0.24571326 -0.15249763 -0.23059301 -0.120072335 0.2378246 -0.48445675 -0.2426257 -0.77981144
0.6604284 0.21218646 0.30007243 -0.8257547 -0.10896334 0.24448122 -0.27476582 -0.54253995
0.19303091 -0.55046976 0.57448196 -0.5392494 -0.24190737 -0.523282 -0.0046612085 0.06866725
-0.1591648 0.31041422 -0.2562571 -0.3753013 0.444292 -0.2640692 -0.7486861 0.27424592
-0.28811187 1.1685938 -0.033720825 0.6940607 -0.34316957 0.20656495 -0.118437745 0.11485059
0.49048805 -0.17098506 -0.01198414 -0.53088045 -0.46419257 -0.095174104 0.5017053 0.22722682
-0.3720076 0.059677254 -0.20203038 0.28395477 -0.34706974 0.4312764 0.111798584 -0.12663294
00000000: 706f 89bc af8c 9a3d bcb9 7b3f 8c5e abbc
00000010: ac7b 07bd 27be bebc 47dd 10bf 4fd8 843f
00000020: c874 103f ff66 073f 0910 873e 835d 373f
00000030: 3dd1 0ebf bfcb 92be 35c0 d1be 9389 3e3e
00000040: f8f2 32be 63e3 193e d3d4 f8be 978f 063e
00000050: e942 983e 37bb 6e3e d17e 393e 4e63 c9be
00000060: fd58 22bf 0e53 023d 9e16 523d 0981 51bf
00000070: 96ed c03d f10e 03be b731 113c 0f99 d6bd
00000080: 8db6 963d 802f dc3e c2a0 c9be b410 c1be
00000090: 75d6 dc3e 6079 6d3d 56b3 e13d 2316 01bf
000000a0: 9820 79bd 4571 ddbd 419c 003f 0c00 ebbe
000000b0: d23b 6b3e 8835 193f 5f49 e83e 450a 7fbe
000000c0: f82b 98be a41e 06be 0620 d5be af6b ca3e
000000d0: a36c f93e fecf 833d 2cd0 9f3a f42e c33e
000000e0: 82be 09bf 0073 873e daad 823d c237 143f
000000f0: a926 96bd 877c 8c3e 10be 0bbf 8b9c 33be
00000100: 60ff 143f c7f2 593e 892a 973e 8193 13bf
00000110: c330 7e3f b40d 2dbe 6e95 0b3e e940 54be
00000120: 490e 1e3d b014 bebe 6fda 0e3f 09b8 95be
00000130: f69d d7bd 8bd7 fa3d 5222 313f ee88 f4be
00000140: 2f8a 98bd bc66 c13e 0039 19be b995 2f3e
00000150: 0198 033f 3971 15bf 2666 8f3e 4d85 f93e
00000160: c6f2 10be 07ca e0bd 607e 9a3d 3698 a1be
00000170: b201 153f 92b9 d73d 12d3 803e 0226 c7be
00000180: f43a 313f f183 63bf eb1c 8c3e 4d1a b43e
00000190: 83c0 e83d 487f 83bd 3f52 023e 12cc d53e
000001a0: 08b6 f8be 34b9 ed3e c8b6 0f3e 0c7f b73e
000001b0: 799f f13e ce05 b1be a2dc afbe 4241 cc3e
000001c0: d361 37bf 4ce1 8fbe 7fd8 31be 3fef 933e
000001d0: a0dd c0be 1c25 763f f2d2 0d3e bcd3 293d
000001e0: 64bc d7bd 5e5c 80bd 7524 95be f850 813f
000001f0: dc40 00be 5d9b c53e fea0 d03e 86b8 fabd
00000200: 7f54 68be 96f1 46bd 6671 22bf a634 2e3f
00000210: 8d2c d5bd 6cb2 003f 69bd dc3e b74c 5c3e
00000220: 1c78 803e d2ff e5be d243 c63e f64e 24bf
00000230: cf47 cd3e 48db 74bd a1c3 4bbe c951 de3e
00000240: 1992 27be 7f03 25bf 992e f63e 6400 403e
00000250: 4994 fcbe a6af 5c3e 30e7 60be 8bed d93e
00000260: 1fbb 28bc 8ec5 b6be 3151 babe d422 b1bd
00000270: 99de 1f3f af2d 903e 06fc b7be f8c5 a7be
00000280: 9793 403e 7342 133f a586 5d3d f3b9 b83d
00000290: 8c6f 8a3d 549e 7cbe b4e9 06be 562d 513e
000002a0: 9a99 c83d 0ae4 ea3d 0796 053f e03d 10bf
000002b0: 9c26 c63d 3c73 533e 606d de3e 6ed6 14be
000002c0: cd4f 1e3f 5a0d 3bbf e828 293f 441f 863e
000002d0: ee04 d13e bba6 203e 1822 21bf d9b6 383e
000002e0: 757e 2b3f c728 e43b 27f4 833f 639e 8abe
000002f0: b67d dbbe 12ac fe3e 92df cb3c 5e0b b43e
00000300: ccda dbbe 83a3 2c3d 7c2c 07be 1cef ae3e
00000310: 06b8 95be 1f77 08bf c937 113f 8082 b73e
00000320: 429c 7b3e 5728 1cbe 9320 6cbe 7ce8 f5bd
00000330: 4b88 733e b70a f8be df72 78be b9a1 47bf
00000340: d611 293f 6847 593e 18a3 993e a964 53bf
00000350: 2c28 dfbd 4959 7a3e 1bae 8cbe e6e3 0abf
00000360: e5a9 453e 96eb 0cbf 4011 133f 400c 0abf
00000370: 91b6 77be cff5 05bf 0dbd 98bb 6aa1 8c3d
00000380: 19fc 22be 9dee 9e3e 2134 83be 7e27 c0be
00000390: 3e7a e33e 1434 87be e4a9 3fbf f669 8c3e
000003a0: 6683 93be 7b94 953f d91e 0abd f6ad 313f
000003b0: ecb3 afbe c385 533e 7d8f f2bd c936 eb3d
000003c0: 4021 fb3e b516 2fbe 2059 44bc c8e7 07bf
000003d0: a6aa edbe a4ea c2bd c26f 003f 26ae 683e
000003e0: c877 bebe 2370 743d 0de1 4ebe 8562 913e
000003f0: 20b3 b1be 43d0 dc3e a8f6 e43d 11ac 01be

fc1.bias f4 [100]
-0.14219028 -0.45301187 -0.28137222 -0.0737859 0.3969724 -0.4063815 -0.541575 0.35389063
0.0960398 -0.28276572 0.23325142 0.2504274 -0.45860514 0.037100557 0.6643996 -0.3602092
0.40873048 0.29088306 -0.28573832 0.43708146 -0.25352034 -0.1047675 -0.025100423 0.20639338
0.1923386 -0.13477242 -0.32588077 -0.29611996 0.6826868 0.46515188 -0.45517644 0.22934556
-0.033827543 0.5519472 -0.5564678 0.08876299 0.22286902 0.35709536 -0.18271168 -0.20400898
0.3240353 0.31062943 0.25336635 -0.6710652 0.52044094 -0.14038898 -0.638887 0.124350496
0.5258373 0.53800005 0.16452879 0.47414416 -0.5766925 0.114027925 0.10844758 0.051043246
-0.20515315 0.6536015 0.012999757 0.20788185 -0.3914181 0.13038836 -0.09859015 0.4468084
-0.26050738 -0.004868972 0.06633065 -0.5292577 0.33883566 0.13640113 0.59325933 -0.1127151
0.29708618 0.19344367 -0.5603569 -0.23748358 0.415026 -0.024236651 0.1613404 0.5625326
-0.59895426 -0.43000162 0.58516103 -0.2861904 0.5851121 -0.39037767 -0.3568708 0.22121531
0.45554373 -0.3933419 0.32959792 0.6633227 0.31580463 0.40202898 -0.035573233 0.33608976
0.23597515 -0.23222418 0.18916981 0.44244626
00000000: 549a 11be 2cf1 e7be 0510 90be 101d 97bd
00000010: f73f cb3e 3c11 d0be a9a4 0abf 2731 b53e
00000020: 84b0 c43d abc6 90be 76d9 6e3e 0538 803e
00000030: 4bce eabe c1f6 173d 1816 2a3f 576d b8be
00000040: 1f45 d13e a0ee 943e 4b4c 92be 24c9 df3e
00000050: 6bcd 81be 5890 d6bd 679f cdbc c958 533e
00000060: 69f4 443e c801 0abe d8d9 a6be 099d 97be
00000070: 90c4 2e3f 6328 ee3e e30c e9be 90d9 6a3e
00000080: c08e 0abd 694c 0d3f ac74 0ebf 5fc9 b53d
00000090: c737 643e 34d5 b63e c518 3bbe bbe7 50be
000000a0: f4e7 a53e d20a 9f3e 3cb9 813e eeca 2bbf
000000b0: 9e3b 053f 21c2 0fbe 198e 23bf 79ab fe3d
000000c0: 469d 063f 5fba 093f 3c7a 283e 06c3 f23e
000000d0: 1fa2 13bf 7987 e93d c419 de3d b912 513d
000000e0: ab13 52be 6e52 273f effc 543c fbde 543e
000000f0: f467 c8be 8784 053e a2e9 c9bd 12c4 e43e
00000100: 3961 85be e68b 9fbb 5dd8 873d 6f7d 07bf
00000110: de7b ad3e bdac 0b3e d8df 173f 2dd7 e6bd
00000120: ae1b 983e 1916 463e 8d73 0fbf e52e 73be
00000130: 4a7e d43e f18b c6bc 6b36 253e 2302 103f
00000140: 1155 19bf 2c29 dcbe 1dcd 153f 8c87 92be
00000150: e8c9 153f 95df c7be c5b7 b6be 4486 623e
00000160: 073d e93e 1c64 c9be 0fc1 a83e 84cf 293f
00000170: 25b1 a13e bed6 cd3e 3db5 11bd f513 ac3e
00000180: 78a3 713e 2dcc 6dbe bbb5 413e 5188 e23e

fc2.weight f4 [100, 100]
0.24197908 0.045528788 -0.05344874 -0.15144682 0.22168267 -0.47381118 -0.5569508 0.28428254
-0.029862111 0.056943137 0.54857874 -0.26175714 -0.11395196 0.091824986 0.6410592 0.14179496
-0.4452826 0.12630492 -0.38477054 0.25509334 -0.07652486 0.007964685 0.029041108 0.036453445
0.04321838 -0.11860395 -0.12718207 0.08333383 0.12907602 -0.019542517 -0.5679469 0.019587131
-0.090506 0.30667835 -0.11778962 0.19185142 -0.38417992 -0.032975793 0.14070198 -0.25078654
0.39291257 0.15095967 0.6348071 0.10864419 0.63593954 0.17868875 0.05061447 0.16068996
0.12243946 -0.061060395 -0.15832472 -0.025486449 0.23730293 -0.03474678 -0.31643346 0.043878853
-0.020399721 0.3733305 -0.3727099 -0.0915278 0.69092596 0.039666045 -0.23843083 0.27455813
-0.21339868 0.2738607 0.6108236 0.063008875 0.3105647 0.011728739 -0.2778012 -0.4624836
-0.11922132 0.34864292 -0.28599903 0.113433115 -0.29621056 -0.06179596 -0.002530136 0.034283247
0.15850978 0.3986718 -0.028058114 -0.5985536 0.12801427 0.122812 0.092669174 -0.15396719
-0.39712694 0.024395699 -0.041610323 0.5658085 -0.21519987 -0.2704875 0.29249883 0.15695491
-0.39313215 -0.8736178 -0.25297254 -0.008258272 -0.58780926 -0.2086001 0.20236216 0.15478137
-0.14376044 -0.22993557 0.37300372 -0.3837387 0.42932856 0.21488485 0.13876952 -0.25411677
0.23334646 0.60067207 -0.21301922 0.07241561 -0.4159515 0.45132273 -0.17985073 0.1253876
0.4007212 -0.18280897 0.5909103 -0.5599731 -0.62874705 -0.072465174 0.02446741 -0.15652406
-0.07119268 -0.11598208 -0.14326257 -0.33885828 0.06347922 -0.19817267 -0.3716465 0.17420162
0.05955458 0.1076524 -0.3990413 0.31897345 -0.24685518 0.14423227 -0.3149082 0.54084325
0.3538668 -0.3081248 0.41635087 -0.0514442 -0.1494571 -0.09114977 0.00710278 0.33774292
0.3195485 0.23350884 -0.43135363 0.5544945 0.23104905 -0.56793237 0.0031809784 0.34737656
-0.30395088 -0.23139565 -0.40739682 0.13018051 -0.19490466 -0.4656988 -0.14650087 0.17554706
0.28073663 0.14125772 0.1902108 -0.17165884 0.35787156 0.42150417 0.018129539 -0.48156065
-0.32544383 0.009074122 -0.0076516974 0.22690396 -0.05030822 -0.06655163 -0.4225128 0.12743765
0.003090761 0.10178464 0.5255004 0.077831194 -0.09799804 0.41720653 0.40429088 0.277921
-0.4672485 0.35106426 0.18058363 -0.18221048 0.049701173 -0.20753416 -0.058884732 -0.0063258335
0.18228763 -0.11717611 -0.57853955 0.09248799 0.39124435 -0.6592198 0.15995301 -0.23759751
0.12512852 -0.32403955 0.3932771 0.59469074 -0.2673081 -0.07951756 0.29415655 -0.117652684
-0.124460414 0.15376364 -0.14258018 -0.22326657 0.19581476 -0.39915845 0.34782028 -0.18756273
0.10883401 0.18234967 -0.011197545 0.35924175 0.16478045 0.15573364 0.08471655 0.088818975
0.28186008 0.45270693 -0.051939394 0.0022646806 -0.17562011 -0.3207421 0.38913348 0.24417862
0.21674798 0.12929894 0.10058955 0.15020768 0.1905175 -0.3178078 0.05846861 -0.24227637
-0.4026533 0.23335469 0.30345204 0.46561828 -0.10470542 -0.15426116 -0.1810212 0.03084201
00000000: 5dc9 773e 657c 3a3d 11ed 5abd e014 1bbe
00000010: c800 633e 6197 f2be 5494 0ebf 7b8d 913e
00000020: 63a1 f4bc 353d 693d a86f 0c3f 0805 86be
00000030: a55f e9bd bd0e bc3d 751c 243f b332 113e
00000040: 15fc e3be 1456 013e a500 c5be 989b 823e
00000050: 11b9 9cbd 4f7e 023c 9ee7 ed3c 3550 153d
00000060: c205 313d a1e6 f2bd 043c 02be edaa aa3d
00000070: 812c 043e a117 a0bc f864 11bf 3175 a03c
00000080: 365b b9bd f204 9d3e af3b f1bd b374 443e
00000090: 3bb3 c4be a011 07bd 2e14 103e 1867 80be
000000a0: d62b c93e 2c95 1a3e b882 223f d880 de3d
000000b0: efcc 223f 2ffa 363e 1e51 4f3d e98b 243e
000000c0: 8ac1 fa3d 771a 7abd e01f 22be f5c8 d0bc
000000d0: 8aff 723e a452 0ebd 9103 a2be 50ba 333d
000000e0: 511d a7bc 2d25 bf3e d5d3 bebe ed72 bbbd
000000f0: 86e0 303f dd78 223d 3627 74be e292 8c3e
00000100: 2f85 5abe 7837 8c3e ef5e 1c3f cc0a 813d
00000110: 5602 9f3e e629 403c f53b 8ebe a7ca ecbe
00000120: 4f2a f4bd 5381 b23e 776e 92be 9f4f e83d
00000130: e9a8 97be c31d 7dbd a3d0 25bb 976c 0c3d
00000140: 6350 223e b61e cc3e 21da e5bc cf3a 19bf
00000150: 2c16 033e dc84 fb3d 56c9 bd3d 93a9 1dbe
00000160: 3954 cbbe 7dd9 c73c 966f 2abd d3d8 103f
00000170: 5b5d 5cbe 567d 8abe 68c2 953e cab8 203e
00000180: 9e48 c9be 6ba5 5fbf 9e85 81be b44d 07bc
00000190: ab7a 16bf 449b 55be 0738 4f3e 027f 1e3e
000001a0: f035 13be 3b74 6bbe 58fa be3e 6679 c4be
000001b0: f4d0 db3e c60a 5c3e 9919 0e3e 981b 82be
000001c0: 60f2 6e3e a5c5 193f b621 5abe a34e 943d
000001d0: 98f7 d4be c613 e73e ca2a 38be 9b65 003e
000001e0: 542b cd3e 4632 3bbe e645 173f 665a 0fbf
000001f0: 91f5 20bf 9f68 94bd e16f c83c d847 20be
00000200: 78cd 91bd 0388 edbd 6cb3 12be d57e adbe
00000210: 6501 823d c7ed 4abe 7348 bebe e961 323e
00000220: 81ef 733d dd78 dc3d 244f ccbe 7d50 a33e
00000230: 9bc7 7cbe a0b1 133e a63b a1be b474 0a3f
00000240: 072e b53e 89c2 9dbe f12b d53e 27b7 52bd
00000250: 480b 19be bbac babd 70be e83b a4ec ac3e
00000260: dc9b a33e f11c 6f3e 62da dcbe 5af3 0d3f
00000270: 1f98 6c3e 0464 11bf f677 503b 57db b13e
00000280: 739f 9bbe fbf2 6cbe 5196 d0be 0a4e 053e
00000290: 1695 47be 1370 eebe 5304 16be 9cc2 333e
000002a0: b6bc 8f3e dda5 103e 9fc6 423e 56c7 2fbe
000002b0: f13a b73e 65cf d73e 6684 943c 1e8f f6be
000002c0: 93a0 a6be a0ab 143c 17bb fabb 8359 683e
000002d0: fe0f 4ebd 394c 88bd 9953 d8be 047f 023e
000002e0: 5d8e 4a3b 7774 d03d 3287 063f f665 9f3d
000002f0: 32b3 c8bd 189c d53e 37ff ce3e a94b 8e3e
00000300: 323b efbe b2be b33e eaea 383e 6295 3abe
00000310: 7593 4b3d d683 54be 1e31 71bd f048 cfbb
00000320: 9ca9 3a3e 07fa efbd 2b1b 14bf 586a bd3d
00000330: 2e51 c83e a1c2 28bf b9ca 233e c34c 73be
00000340: b121 003e 83e8 a5be 9e5b c93e a73d 183f
00000350: 9bdc 88be 1ada a2bd b09b 963e e4f3 f0bd
00000360: 1ae5 febd 3774 1d3e 8a00 12be fe9f 64be
00000370: aa83 483e 7f5e ccbe 8015 b23e 7210 40be
00000380: 5ee4 de3d dfb9 3a3e e875 37bc 89ee b73e
00000390: 35bc 283e a478 1f3e df7f ad3d b9e6 b53d
000003a0: f74f 903e 34c9 e73e 67be 54bd 096b 143b
000003b0: c2d5 33be 4f38 a4be 813c c73e f609 7a3e
000003c0: 2ff3 5d3e f166 043e e501 ce3d 0bd0 193e
000003d0: 0517 433e b4b7 a2be c87c 6f3d 4c17 78be
000003e0: 9328 cebe 88f4 6e3e 115e 9b3e 8565 ee3e
000003f0: cc6f d6bd a3f6 1dbe 9f5d 39be 62a8 fc3c

fc2.bias f4 [100]
0.15644687 -0.06064392 0.1423133 -0.2303598 -0.24958923 -0.07753292 0.43648407 -0.14032413
-0.060817596 -0.26378644 -0.15020315 0.10507264 -0.18891436 0.19324057 -0.108370066 0.3146876
-0.36562428 0.31637052 -0.01910598 -0.049029633 0.34264973 0.11401902 -0.3124182 0.17169048
-0.24735248 0.8331983 0.14486179 -0.051995203 -0.093459815 -0.13276419 -0.27973437 -0.45490143
0.21685036 0.28395087 -0.0539188 -0.038925376 0.11824006 -0.008160683 -0.2090357 0.648373
-0.08736746 0.12120573 -0.23421657 -0.04253776 -0.036966987 -0.11154775 -0.12544233 0.045950633
-0.12564188 0.1179144 0.22661534 0.10865569 0.24317503 -0.10764043 0.5959017 0.36243632
-0.20842664 0.014178697 0.114268504 -0.18256071 -0.12872694 -0.31122628 0.32990083 -0.2980074
-0.44805458 0.17624892 -0.0105758 0.19523449 -0.08353414 -0.071573384 0.16138582 -0.14695792
-0.12466716 -0.09646609 -0.057926625 -0.18009003 -0.11880287 -0.13580087 0.20072523 -0.0023385074
-0.05708953 -0.25375023 -0.21818 -0.26999578 0.09308677 -0.3217646 0.034214985 -0.28062937
-0.040131908 -0.06279025 0.32679963 0.0942963 -0.09014811 -0.11598097 -0.0671684 -0.1667778
0.3336321 -0.091048785 -0.091381885 -0.2538449
00000000: 9c33 203e c265 78bd 94ba 113e 70e3 6bbe
00000010: 5294 7fbe 94c9 9ebd d77a df3e 21b1 0fbe
00000020: df1b 79bd 040f 87be dbce 19be 5330 d73d
00000030: c472 41be dbe0 453e 20f1 ddbd bc1e a13e
00000040: 1b33 bbbe 51fb a13e 2584 9cbc 4cd3 48bd
00000050: c96f af3e ce82 e93d 47f5 9fbe a1cf 2f3e
00000060: f849 7dbe 7c4c 553f a656 143e ecf8 54bd
00000070: dc67 bfbd 56f3 07be 5839 8fbe d7e8 e8be
00000080: 050e 5e3e 0262 913e f6d9 5cbd 3770 1fbd
00000090: d827 f23d 63b4 05bc 740d 56be c6fb 253f
000000a0: b6ed b2bd b63a f83d 78d6 6fbe 133c 2ebd
000000b0: b26a 17bd 2673 e4bd f473 00be bb36 3c3d
000000c0: 44a8 00be 1b7d f13d da0d 683e e086 de3d
000000d0: e002 793e 9672 dcbd 048d 183f 4191 b93e
000000e0: cb6d 55be c44d 683c 9b05 ea3d 32f1 3abe
000000f0: ffd0 03be 0d59 9fbe c3e8 a83e 6d94 98be
00000100: 6967 e5be 997a 343e 1f46 2dbc 8deb 473e
00000110: f213 abbd 1195 92bd 5342 253e 237c 16be
00000120: 7f51 ffbd 0390 c5bd 7844 6dbd 8569 38be
00000130: eb4e f3bd 620f 0bbe ea8a 4d3e a541 19bb
00000140: b6d6 69bd 8deb 81be 946a 5fbe e33c 8abe
00000150: 47a4 be3d 54be a4be 0325 0c3d a7ae 8fbe
00000160: 5b61 24bd 2d98 80bd 4852 a73e 6b1e c13d
00000170: 939f b8bd 6e87 edbd 968f 89bd cdc7 2abe
00000180: d4d1 aa3e c977 babd 6d26 bbbd f5f7 81be

fc3.weight f4 [3, 100]
-0.009205677 -0.06427714 -0.06380234 0.1043103 0.19414042 0.4197 0.4662014 -0.011927544
0.2620933 -0.38738453 0.21530959 -0.035409242 -0.09267689 -0.07386142 -0.08322002 0.05920373
-0.38318995 -0.05175818 0.12664895 0.27730685 0.05464191 0.20303732 0.31366956 0.33141318
0.051437244 0.68345845 -0.18064177 -0.3171326 0.012250741 0.08567024 -0.22864796 -0.24708813
0.36608598 -0.3349549 0.107009895 -0.14884135 -0.008304999 0.13446037 -0.22050937 0.13821448
-0.15063347 0.20892653 -0.3543884 -0.019792488 0.22756626 0.13536759 -0.31270847 -0.22213785
-0.35121098 0.2000702 -0.26111296 0.12549058 0.26331708 -0.29144552 0.48170748 0.10403552
0.3819066 -0.24447297 -0.018991847 0.16442895 -0.29993573 0.3972521 -0.25837693 0.20318376
0.22632393 0.31266674 -0.12260072 0.1856821 -0.030993242 0.03829296 -0.1007492 -0.06729171
0.14874154 0.095214166 0.19544053 0.3684956 0.174364 -0.37273124 -0.47682148 -0.16947949
0.201321 -0.31773612 -0.16853191 -0.07844644 0.14132789 -0.26554605 -0.4593097 0.41630614
0.32695308 0.23237038 0.22533849 0.3796955 -0.13027358 0.35583317 -0.11544966 0.23316845
0.26070392 0.009156473 -0.42802498 0.0012061407 0.0943314 -0.07775652 -0.14865254 -0.6053231
0.36262393 0.005921251 -0.27241683 0.36685395 0.05330009 0.20180225 0.03443699 0.51842
0.3234725 -0.43781513 -0.1480361 -0.38791242 0.2529572 0.5297001 -0.12537093 0.4475306
-0.39823008 0.7825746 -0.32652146 -0.2579418 -0.05744485 -0.22842471 -0.5896984 0.034498025
-0.65394676 0.5856896 0.39307165 0.45430595 -0.2593254 0.67812747 0.22039396 -0.07857656
-0.42069644 -0.39148444 -0.13155657 -0.16262586 0.3005742 -0.04660601 -0.39660516 0.4562112
0.20467632 -0.64846754 -0.44401824 -0.4973781 0.24533562 0.17595345 -0.25470626 0.18313158
0.17656246 0.16676843 -0.018671336 0.41073546 0.28532693 -0.26849025 -0.25793317 0.44139433
0.3322234 0.2523511 -0.305835 -0.04414338 0.10591071 -0.067452475 -0.42079228 0.5113733
-0.3799348 0.48080513 0.24458268 0.34408793 0.29141074 0.4093097 0.022072148 0.23889905
0.48625392 0.13409594 -0.052062243 -0.016305529 -0.01569392 0.113478824 -0.012503748 -0.20874286
-0.36267883 0.08598285 0.43087292 -0.64928776 0.017995141 0.15545997 -0.5174027 0.27092937
-0.23789614 -0.16111374 0.02715333 0.32527047 0.022856914 -0.14846325 -0.117495544 0.35801938
-0.38685265 -0.60821825 -0.5154284 -0.18771237 0.055321287 -0.18551317 -0.44177023 -0.44901368
-0.43329906 -0.27712783 0.40427503 0.082140155 0.36280718 -0.3533819 0.48786137 0.36867723
0.41966835 0.043895494 -0.35210055 -0.09147983 -0.23204912 -0.09629121 -0.15807109 0.3431935
-0.6425904 0.0007042014 -0.3504814 0.56409675 -0.085071966 0.12710474 0.0686849 -0.37387496
0.4529593 0.18051703 0.53216827 0.34315857 0.11772862 0.0074197245 -0.37165 0.6379842
0.5283519 0.3913473 0.16228041 0.18153621 0.3895049 -0.08217533 -0.008425024 0.1392669
0.030428374 0.32296753 -0.14411376 0.45311505 0.41715297 -0.009209874 -0.25658387 -0.38697335
00000000: 68d3 16bc bca3 83bd cdaa 82bd a3a0 d53d
00000010: bfcc 463e ebe2 d63e f3b1 ee3e bf6b 43bc
00000020: 1831 863e 4457 c6be 1e7a 5c3e 4809 11bd
00000030: 62cd bdbd a844 97bd 426f aabd 9c7f 723d
00000040: 7931 c4be 6300 54bd 43b0 013e 2afb 8d3e
00000050: 32d0 5f3d 04e9 4f3e 4c99 a03e fdae a93e
00000060: dcaf 523d 22f7 2e3f 28fa 38be 345f a2be
00000070: 55b7 483c e173 af3d b122 6abe ac04 7dbe
00000080: 9f6f bb3e 357f abbe 0128 db3d de69 18be
00000090: b111 08bc fbaf 093e 35cd 61be 1988 0d3e
000000a0: a93f 1abe d6f0 553e 6572 b5be db23 a2bc
000000b0: 2107 693e cd9d 0a3e 531b a0be 1b78 63be
000000c0: edd1 b3be 34df 4c3e 99b0 85be 9a80 003e
000000d0: 7fd1 863e 5938 95be 5da2 f63e 9310 d53d
000000e0: 4389 c33e 1f57 7abe ca94 9bbc 1060 283e
000000f0: 2d91 99be a164 cb3e fb49 84be 670f 503e
00000100: 76c1 673e db15 a03e 1616 fbbd 7323 3e3e
00000110: 8ae5 fdbc 14d9 1c3d 9955 cebd 3cd0 89bd
00000120: b44f 183e a5ff c23d 9021 483e 75ab bc3e
00000130: 7a8c 323e a1d6 bebe f221 f4be 088c 2dbe
00000140: 1827 4e3e 4fae a2be a193 2cbe 87a8 a0bd
00000150: 42b8 103e a7f5 87be a42a ebbe 1426 d53e
00000160: 6566 a73e 80f2 6d3e 22bf 663e 7367 c23e
00000170: 7066 05be c42f b63e df70 ecbd b6c3 6e3e
00000180: fc7a 853e 0805 163c 1726 dbbe 5e17 9e3a
00000190: d230 c13d cf3e 9fbd 5f38 18be 74f6 1abf
000001a0: d8a9 b93e 0e07 c23b 387a 8bbe 48d4 bb3e
000001b0: 3251 5a3d 40a5 4e3e cd0d 0d3d 2cb7 043f
000001c0: 309e a53e 4e29 e0be c796 17be 759c c6be
000001d0: 9b83 813e 6d9a 073f 3d61 00be bb22 e53e
000001e0: d0e4 cbbe cf56 483f d22d a7be f310 84be
000001f0: 4b4b 6bbd 2be8 69be 79f6 16bf cd4d 0d3d
00000200: 0e69 27bf c1ef 153f b040 c93e ca9a e83e
00000210: 4dc6 84be c399 2d3f f4ae 613e bfec a0bd
00000220: 8665 d7be a670 c8be c4b6 06be 6587 26be
00000230: dde4 993e f2e5 3ebd d50f cbbe 8494 e93e
00000240: ab96 513e f801 26bf 5c56 e3be 58a8 febe
00000250: 4339 7b3e 242d 343e dc68 82be d886 3b3e
00000260: cacc 343e 58c5 2a3e a1f4 98bc eb4b d23e
00000270: 5f16 923e 8e77 89be d10f 84be 70fe e13e
00000280: 2f19 aa3e 2a34 813e 6896 9cbe b0cf 34bd
00000290: b7e7 d83d 8624 8abd 1672 d7be 5ce9 023f
000002a0: d086 c2be 172c f63e e273 7a3e 4b2c b03e
000002b0: ca33 953e 0a91 d13e a6d0 b43c f4a1 743e
000002c0: 46f6 f83e 7250 093e 383f 55bd 2c93 85bc
000002d0: 8990 80bc 9667 e83d 85dc 4cbc b0c0 55be
000002e0: 0ab1 b9be c717 b03d 609b dc3e b937 26bf
000002f0: 8c6a 933c e630 1f3e 8174 04bf 41b7 8a3e
00000300: 0c9b 73be 00fb 24be a970 de3c da89 a63e
00000310: 6c3e bb3c c006 18be 81a1 f0bd 514e b73e
00000320: 8d11 c6be 31b4 1bbf 1ef3 03bf ac37 40be
00000330: 9398 623d 2af7 3dbe b52f e2be 1fe5 e5be
00000340: 60d9 ddbe b3e3 8dbe 23fd ce3e 1939 a83d
00000350: ddc1 b93e 79ee b4be f7c8 f93e 43c3 bc3e
00000360: c5de d63e c3cb 333d 8646 b4be c759 bbbd
00000370: 499e 6dbe 5334 c5bd 63dd 21be 0fb7 af3e
00000380: ce80 24bf 289a 383a 4c72 b3be a568 103f
00000390: 363a aebd bf27 023e abaa 8c3d 8a6c bfbe
000003a0: 48ea e73e 75d9 383e 2e3c 083f 7bb2 af3e
000003b0: b41b f13d 2921 f33b e948 bebe ef52 233f
000003c0: 1242 073f ac5e c83e d62c 263e a1e4 393e
000003d0: 306d c73e 8a4b a8bd 1d09 0abc fb9b 0e3e
000003e0: ed44 f93c 005c a53e 8f92 13be b2fe e73e
000003f0: 1395 d53e 03e5 16bc f65e 83be 5f21 c6be

fc3.bias f4 [3]
0.5784054 -0.07875954 0.021786837
00000000: 6012 143f af4c a1bd 4f7a b23c

fc1.weight f4 [100, 11]
-0.116188966 0.4418203 0.006936881 -0.42300874 -0.07303257 -0.038083922 -0.110646866 0.34263507
-0.10190164 -0.1188664 0.105164364 0.11230855 -0.38234478 0.010948017 0.19871783 0.08332502
0.07486652 -0.19768141 -0.43701988 0.38227654 0.52405214 0.27890489 -0.051376577 0.060789533
-0.08093735 -0.27348524 0.044014353 0.10586384 -0.21692519 0.38247672 -0.3608471 -0.32727966
-0.16344951 -0.041632865 -0.26545334 0.103031345 -0.2130838 0.3938422 -0.109605506 0.072510585
-0.29829392 0.24111077 0.37802067 -0.039844915 -0.11945354 0.012508521 0.17627484 -0.54689264
-0.27865854 0.118081935 -0.27516004 0.15469854 -0.20315965 -0.090174526 0.18804282 -0.22950369
0.26988998 -0.004064661 -0.1058385 -0.10267714 0.2566421 -0.11816373 0.47358698 -0.36871803
-0.3539887 -0.28741655 -0.25027406 -0.028761335 0.031101195 -0.06395728 -0.12680297 0.147225
-0.054485098 -0.27408546 0.24512735 0.14589171 0.087861404 0.3696106 0.3371135 -0.019422803
-0.19329205 -0.07985453 0.27218616 -0.35281757 -0.0040358044 -0.060839612 -0.14238587 0.20278582
-0.019733824 -0.23835124 0.021284798 0.20857827 0.32631594 -0.7375661 0.08619373 0.1445311
-0.12576433 0.06287713 -0.042231143 -0.20193844 0.7680413 -0.09168276 -0.06595004 -0.10537835
-0.16184744 0.1066616 0.2719058 -0.13780518 -0.1928352 0.33389822 -0.32000145 -0.1343933
-0.057874136 0.24553652 0.17645833 0.088209696 0.25349507 -0.2768055 0.23891248 0.22947276
0.11298784 0.08955445 0.38578063 -0.03293139 -0.0013605333 0.09664312 0.8576626 -0.00869081
-0.040315356 0.10090761 0.09742065 -0.23610388 0.08305526 0.33100262 0.09553954 0.51844424
-0.18912609 0.016607648 0.19472076 0.21075848 -0.13536958 -0.30769184 0.0034153415 0.16917613
-0.06944137 -0.05030816 0.298222 0.045314834 -0.0012124385 0.2526039 -0.29181525 0.4394629
0.457223 0.33601707 0.13158911 -0.8265578 0.23760845 0.26155064 0.110986315 -0.4751692
-0.6218281 0.013266955 0.078392215 0.2059615 -0.02508088 0.1997572 0.085363865 0.012401223
-0.12140228 0.2612198 0.47291237 -0.07220542 -0.25459635 0.16315763 0.1665622 0.08824658
-0.23802337 -0.3664694 -0.05266667 -0.37875548 -0.27029854 -0.0892463 -0.21536951 -0.07251551
-0.039813664 0.06859282 -0.017203452 0.120568424 0.041119624 -0.07484157 0.24808952 -0.046346392
0.17514095 0.26134744 -0.4397148 0.47102073 0.3458276 0.22993447 -0.013987248 -0.37590295
0.11016028 0.29186952 0.25360894 0.13357776 -0.58865315 -0.18203396 0.124649525 0.39139038
0.30515438 0.2286301 -0.11212685 0.024241615 -0.07640457 0.44260085 0.16844185 0.30757755
-0.6799775 0.46156427 0.6618571 0.016077774 -0.15295163 0.10361998 -0.04965805 0.5602586
0.05422957 0.79217356 -0.07870689 0.522322 -0.49679565 -0.6657251 -0.22751795 0.27704343
-0.029050333 0.069582954 0.1492746 -0.21126911 -0.40211126 0.14185378 -0.5278902 0.56234413
0.63396 0.33613372 -0.12688968 0.108642206 -0.114605926 -0.20049492 -0.007214459 0.0827696
-0.26229683 0.42624262 -0.4272746 -0.35273013 -0.38173172 0.12572297 -0.29788712 0.05002155
00000000: 7bf4 edbd 4536 e23e c74e e33b 9a94 d8be
00000010: 1a92 95bd e3fd 1bbd d39a e2bd dd6d af3e
00000020: cfb1 d0bd 3a70 f3bd 6a60 d73d 0602 e63d
00000030: b2c2 c3be 505f 333c b07c 4b3e 4fa6 aa3d
00000040: 9e53 993d ff6c 4abe 12c1 dfbe c0b9 c33e
00000050: 4828 063f 9fcc 8e3e 3f70 52bd 72fe 783d
00000060: 7bc2 a5bd 4206 8cbe 6548 343d 24cf d83d
00000070: a321 5ebe fdd3 c33e f3c0 b8be 3391 a7be
00000080: 4f5f 27be 3987 2abd 80e9 87be 1902 d33d
00000090: a432 5abe afa5 c93e da78 e0bd 6e80 943d
000000a0: fbb9 98be bee5 763e ed8b c13e 6c34 23bd
000000b0: 0fa4 f4bd 8af0 4c3c 6481 343e 2801 0cbf
000000c0: 55ac 8ebe f1d4 f13d c7e1 8cbe 4b69 1e3e
000000d0: 1509 50be 6cad b8bd 4c8e 403e 0403 6bbe
000000e0: 052f 8a3e d930 85bb dbc1 d8bd 6448 d2bd
000000f0: 9866 833e d3ff f1bd fe79 f23e 9cc8 bcbe
00000100: 023e b5be 4328 93be ec23 80be e49c ebbc
00000110: efc7 fe3c 09fc 82bd a3d8 01be 27c2 163e
00000120: c42b 5fbd ee54 8cbe aa02 7b3e a364 153e
00000130: aef0 b33d 9a3d bd3e 249a ac3e 921c 9fbc
00000140: 5aee 45be c68a a3bd fc5b 8b3e 81a4 b4be
00000150: c83e 84bb f532 79bd 9acd 11be 16a7 4f3e
00000160: d4a8 a1bc 5912 74be 755d ae3c 8b95 553e
00000170: e212 a73e 22d1 3cbf 5786 b03d f6ff 133e
00000180: 5dc8 00be bac5 803d 90fa 2cbd f3c8 4ebe
00000190: 5b9e 443f 2cc4 bbbd d110 87bd 9bd0 d7bd
000001a0: 56bb 25be 6671 da3d 3d37 8b3e cd1c 0dbe
000001b0: 9776 45be b5f4 aa3e 3bd7 a3be 669e 09be
000001c0: 6e0d 6dbd ed6d 7b3e 7eb1 343e 49a7 b43d
000001d0: 1bca 813e 73b9 8dbe 79a5 743e e8fa 6a3e
000001e0: 2b66 e73d 5368 b73d 0a85 c53e 11e3 06bd
000001f0: ec53 b2ba d4ec c53d c78f 5b3f e663 0ebc
00000200: b721 25bd a6a8 ce3d 7a84 c73d 37c5 71be
00000210: e018 aa3d 2d79 a93e 3caa c33d c3b8 043f
00000220: 45aa 41be c30c 883c e164 473e 12d1 573e
00000230: 539e 0abe c989 9dbe ecd3 5f3b 823c 2d3e
00000240: 4737 8ebd ee0f 4ebd 8eb0 983e 0c9c 393d
00000250: afea 9eba 4c55 813e cf68 95be 4801 e13e
00000260: 2219 ea3e 6e0a ac3e 4cbf 063e 4b99 53bf
00000270: a14f 733e f7e9 853e cb4c e33d 6149 f3be
00000280: 2030 1fbf a45d 593c 198c a03d 92e7 523e
00000290: 6b76 cdbc 278d 4c3e 40d3 ae3d 802e 4b3c
000002a0: c2a1 f8bd 9abe 853e 9221 f23e 6fe0 93bd
000002b0: 745a 82be cb12 273e 488f 2a3e 9fba b43d
000002c0: 66bc 73be e1a1 bbbe 02b9 57bd 3dec c1be
000002d0: 9264 8abe c4c6 b6bd d389 5cbe 0383 94bd
000002e0: a713 23bd 647a 8c3d 41ee 8cbc 94ec f63d
000002f0: 0d6d 283d 8946 99bd 2e0b 7e3e b7d5 3dbd
00000300: 2658 333e 55cf 853e 4c22 e1be a129 f13e
00000310: 5110 b13e f173 6b3e c52a 65bc 5a76 c0be
00000320: b69b e13d ec6f 953e 08d9 813e 9cc8 083e
00000330: f9b1 16bf 1c67 3abe 4048 ff3d 5264 c83e
00000340: 323d 9c3e 021e 6a3e c3a2 e5bd 5a96 c63c
00000350: 007a 9cbd 949c e23e 057c 2c3e ce7a 9d3e
00000360: 0113 2ebf 2752 ec3e 786f 293f 89b5 833c
00000370: 5a9f 1cbe b636 d43d 3d66 4bbd 1c6d 0f3f
00000380: d31f 5e3d e3cb 4a3f 1431 a1bd e5b6 053f
00000390: 005c febe f66c 2abf 77fa 68be a3d8 8d3e
000003a0: f7fa edbc 8281 8e3d 71db 183e ee56 58be
000003b0: 87e1 cdbe 1e42 113e d023 07bf c9f5 0f3f
000003c0: 344b 223f b819 ac3e 5eef 01be ce7f de3d
000003d0: 83b6 eabd 8a4e 4dbe 4567 ecbb 1c83 a93d
000003e0: c54b 86be 793c da3e bdc3 dabe 0b99 b4be
000003f0: 5772 c3be 86bd 003e a984 98be 66e3 4c3d

fc1.bias f4 [100]
0.7726944 -0.6115858 0.714618 -0.5116335 -0.30039993 0.5846901 -0.82533354 -0.3651078
-0.6406687 -0.78971106 0.17958242 -0.057223078 0.59184223 -0.70569855 0.9052676 -0.8538603
-0.6537603 -0.75409025 -0.6367881 -0.62930036 0.29673675 -0.46678475 0.67117935 -0.63351375
0.7202234 0.22959448 -0.45701137 0.2880928 0.69422084 0.09170819 -0.50067466 -0.46250892
0.70725906 -0.48614255 -0.7871458 0.58035195 -0.8682496 0.7387154 0.3456413 0.51785374
0.595919 -0.89597124 0.9691702 -0.3852313 -0.15142663 -0.29219437 -0.75132847 -0.6511864
-0.80030674 0.39924234 0.77133137 -0.77017194 0.83729345 0.5547289 -0.8114013 -0.5588875
0.9595075 -0.43449578 -0.87982285 -0.3675876 0.009230307 0.3866464 -0.5776171 -0.5238545
0.47818488 -0.8583497 0.58164096 -0.7327145 0.76850885 0.7957048 0.7349228 0.55670387
-0.03698641 -0.9206732 -0.59440744 -0.51178515 -0.6236323 -0.5693502 0.15492639 0.0733663
-0.81640923 -0.21134056 -0.7078318 0.57498395 -0.710598 -0.5657397 -0.72907424 -0.78902584
-1.0890574 -0.43740043 0.2980772 0.45056844 0.8341896 0.089438 -0.7156739 0.46913207
0.82482487 -0.561984 -0.6635993 -0.43435964
00000000: 4dcf 453f e390 1cbf 35f1 363f 6afa 02bf
00000010: 05ce 99be 40ae 153f 0f49 53bf 69ef babe
00000020: dd02 24bf 812a 4abf 74e4 373e bf62 6abd
00000030: f982 173f a9a8 34bf 9ebf 673f 9796 5abf
00000040: d65c 27bf 0f0c 41bf 8b04 23bf d419 21bf
00000050: e1ed 973e 69fe eebe 69d2 2b3f f52d 22bf
00000060: 9060 383f d11a 6b3e 65fd e9be e680 933e
00000070: 75b8 313f 81d1 bb3d 372c 00bf f8cd ecbe
00000080: ee0e 353f ade7 f8be 6382 49bf f291 143f
00000090: 9b45 5ebf 741c 3d3f e5f7 b03e 1092 043f
000000a0: 268e 183f 5f5e 65bf 8a1b 783f 093d c5be
000000b0: 950f 1bbe 809a 95be 1057 40bf 27b4 26bf
000000c0: e7e0 4cbf 7e69 cc3e f975 453f fd29 45bf
000000d0: dd58 563f b702 0e3f ffb7 4fbf 4013 0fbf
000000e0: 49a2 753f 3b76 debe 123c 61bf 7134 bcbe
000000f0: b73a 173c 84f6 c53e b7de 13bf 541b 06bf
00000100: a6d4 f43e cebc 5bbf 6ce6 143f 2d93 3bbf
00000110: ffbc 443f 4fb3 4b3f e723 3c3f 2584 0e3f
00000120: 107f 17bd 3db1 6bbf 162b 18bf 5a04 03bf
00000130: 5ea6 1fbf efc0 11bf 06a5 1e3e 1241 963d
00000140: 3200 51bf a969 58be 7734 35bf 2632 133f
00000150: c0e9 35bf 51d4 10bf 9ca4 3abf 99fd 49bf
00000160: 3c66 8bbf f3f2 dfbe 939d 983e e8b0 e63e
00000170: 738d 553f 452b b73d 6836 37bf 1432 f03e
00000180: b927 533f 2fde 0fbf a5e1 29bf 6364 debe

fc2.weight f4 [100, 100]
0.2214447 -0.0385339 0.092248306 -0.041089326 0.033471186 0.081088856 -0.065721326 0.10604833
-0.097285785 -0.09290382 0.012657759 0.13318801 0.07087177 -0.06789305 -0.07610476 -0.033447772
-0.11689046 -0.07337465 0.027718633 -0.06834601 0.0010305854 -0.016012285 0.08680273 -0.112217866
0.102732375 0.10579988 -0.06020385 -0.0089874985 0.020555455 -0.03843321 -0.07076345 0.07080532
0.04908484 -0.05462123 -0.051965237 0.054727938 0.007734304 0.15232536 0.016914004 -0.01609368
0.06669373 -0.19754398 0.09833725 -0.021628574 -0.0013618717 -0.06741007 -0.023400262 0.043186363
-0.19167428 4.5040506e-06 0.12710136 -0.29065374 0.123643376 0.050255656 -0.04758657 -0.029358251
0.06461745 0.005301071 -0.0363347 -0.057759244 0.054778468 -0.030613406 0.011809218 -0.07761934
0.028466443 -0.08161305 0.044481598 -0.1444109 0.013748739 0.3360407 0.05295212 0.054646034
0.005373733 -0.0926431 -0.15867987 0.041636974 -0.11168677 -0.07663755 -0.012053227 -0.0680999
-0.13180412 -0.050155226 -0.15089478 0.03303517 -0.056001272 -0.06860904 -0.2737253 -0.1561565
-0.06883801 0.0054445886 0.12966995 0.10104013 0.07526005 -0.062116113 -0.05545207 0.071116485
0.06149372 -0.017554298 -0.0077704936 0.08490882 0.2144436 0.054673396 0.086748965 -0.197715
0.374437 0.15193374 0.042601097 0.38950092 -0.121213764 0.035225585 -0.22536123 0.21811995
0.053995796 -0.04400021 -0.36230823 0.2600453 0.026305703 0.04672236 0.055545885 0.030392136
-0.17279647 -0.09453284 0.056994695 -0.24356705 0.12300536 0.07938946 -0.34646872 -0.27216005
-0.15757236 -0.054978058 -0.13780925 0.060422912 0.020366266 -0.23493996 0.062856905 -0.027642034
0.32440624 0.107642025 0.033929028 -0.35993227 0.096347764 0.0032719804 -0.111104555 -0.14827113
0.18146913 -0.12669349 0.18334931 0.12817708 -0.22199884 -0.13151945 0.07012023 -0.21466082
0.05077487 0.006328353 0.12677799 -0.04241657 -0.12013153 -0.027653115 0.28343296 -0.18036906
-0.08330681 -0.161053 0.09361986 -0.25658536 -0.29392198 0.057440672 -0.3860001 -0.2440086
-0.42305523 0.22940403 -0.027560322 0.0675651 0.13690217 0.20924085 -0.32777846 0.084252425
-0.124370575 -0.09103375 -0.12981907 0.09838063 -0.18129691 0.026779333 -0.2604912 -0.016242426
0.11806557 -0.07631956 -0.20124517 -0.0062789866 0.42260474 -0.06681003 0.081038274 0.19296363
-0.086593784 -0.1548259 0.021533988 0.03663922 -0.016805759 0.056281455 0.31052044 0.19961862
0.051882975 0.018091524 0.0369966 0.015456264 -0.0716035 0.010874498 -0.09392651 -0.088671364
-0.11161822 -0.12103134 0.14198092 0.037228815 0.07987172 -0.02350507 0.08348864 -0.060039394
-0.15859622 0.003971367 -0.003315384 0.032202948 -0.07429888 0.038062844 0.0095368335 -0.04037149
-0.003970084 0.13273507 -0.0024902646 0.042930204 0.20831671 0.06891659 -0.01567223 -0.042609267
0.087986566 0.016831772 -0.111174196 -0.016143328 -0.017977852 0.07539303 0.18638647 -0.058311675
-0.009049224 -0.16168068 0.19727983 0.025994176 -0.040061936 -0.16246752 -0.030789161 0.020492608
0.0044208043 0.07421048 0.12017664 -0.06549064 0.026963405 -0.02198744 -0.13931812 0.01654196
00000000: 66c2 623e b9d5 1dbd aeec bc3d 484d 28bd
00000010: 1519 093d ea11 a63d e798 86bd de2f d93d
00000020: c53d c7bd 5c44 bebd 7d62 4f3c 7062 083e
00000030: 3825 913d 830b 8bbd d0dc 9bbd 8800 09bd
00000040: 4464 efbd 7345 96bd 3012 e33c fef8 8bbd
00000050: b514 873a 322c 83bc a1c5 b13d 7bd2 e5bd
00000060: 5a65 d23d 9cad d83d 5098 76bd 4d40 13bc
00000070: ea63 a83c 246c 1dbd 6dec 90bd 6102 913d
00000080: 2f0d 493d 83ba 5fbd 80d9 54bd 672a 603d
00000090: 0b70 fd3b 2efb 1b3e 3d8f 8a3c e5d6 83bc
000000a0: b996 883d f848 4abe 0a65 c93d 682e b1bc
000000b0: d580 b2ba 4a0e 8abd e8b1 bfbc 2fe4 303d
000000c0: 4346 44be 8021 9736 dc26 023e 91d0 94be
000000d0: bd38 fd3d e0d8 4d3d 23ea 42bd b780 f0bc
000000e0: 2756 843d 9bb4 ad3b b2d3 14bd f594 6cbd
000000f0: 635f 603d f7c8 fabc 737b 413c e3f6 9ebd
00000100: 7532 e93c be24 a7bd 5632 363d 73e0 13be
00000110: 6442 613c 870d ac3e 52e4 583d 85d4 5f3d
00000120: 2416 b03b aabb bdbd fa7c 22be 888b 2a3d
00000130: 09bc e4bd 26f4 9cbd e67a 45bc f677 8bbd
00000140: a9f7 06be 916f 4dbd 2984 1abe e34f 073d
00000150: 9761 65bd e582 8cbd b925 8cbe 7de7 1fbe
00000160: f1fa 8cbd 8568 b23b 33c8 043e 21ee ce3d
00000170: f121 9a3d 776d 7ebd b621 63bd 85a5 913d
00000180: d7e0 7b3d 08ce 8fbc a09f febb ade4 ad3d
00000190: 1a97 5b3e 36f1 5f3d 71a9 b13d cd75 4abe
000001a0: 35b6 bf3e 8594 1b3e 7d7e 2e3d aa6c c73e
000001b0: ec3e f8bd b448 103d 18c5 66be d65a 5f3e
000001c0: b22a 5d3d 9039 34bd 7780 b9be a824 853e
000001d0: 0f7f d73c f25f 3f3d 1584 633d eef8 f83c
000001e0: 8ff1 30be 6f9a c1bd 4573 693d a469 79be
000001f0: 3cea fb3d f196 a23d 5964 b1be 9058 8bbe
00000200: a65a 21be ac30 61bd de1d 0dbe 047e 773d
00000210: 28d7 a63c 1a94 70be 1fbb 803d 8c71 e2bc
00000220: 9318 a63e 6c73 dc3d 2af9 0a3d 0b49 b8be
00000230: fa51 c53d b96e 563b c98a e3bd 63d4 17be
00000240: 0bd3 393e f0bb 01be ecbf 3b3e da40 033e
00000250: aa53 63be 09ad 06be 329b 8f3d 0cd0 5bbe
00000260: 4ff9 4f3d 135e cf3b 17d2 013e ffbc 2dbd
00000270: 8507 f6bd c988 e2bc 201e 913e abb2 38be
00000280: c39c aabd 14eb 24be c5bb bf3d 285f 83be
00000290: f17c 96be e946 6b3d cea1 c5be 64dd 79be
000002a0: b29a d8be e4e8 6a3e 2fc6 e1bc 925f 8a3d
000002b0: 1530 0c3e 3c43 563e 94d2 a7be 898c ac3d
000002c0: 00b6 febd e76f babd 4aef 04be c97b c93d
000002d0: e6a5 39be 5560 db3c 1a5f 85be d60e 85bc
000002e0: 5dcc f13d 6e4d 9cbd 3713 4ebe f5bf cdbb
000002f0: a65f d83e b2d3 88bd 65f7 a53d 4298 453e
00000300: 1558 b1bd ae8a 1ebe 0c68 b03c 0213 163d
00000310: 3bac 89bc 6287 663d 89fc 9e3e d368 4c3e
00000320: 3e83 543d ad34 943c bf89 173d 453c 7d3c
00000330: dba4 92bd f32a 323c 8b5c c0bd 5599 b5bd
00000340: 1898 e4bd 47df f7bd 7263 113e 3e7d 183d
00000350: c993 a33d b48d c0bc 18fc aa3d deeb 75bd
00000360: 0c67 22be 3e22 823b ea46 59bb 3de7 033d
00000370: 032a 98bd c9e7 1b3d 6140 1c3c 935c 25bd
00000380: 7a17 82bb b4eb 073e b533 23bb 95d7 2f3d
00000390: fa50 553e 2424 8d3d 0c63 80bc 0e87 2ebd
000003a0: 4d32 b43d c9e2 893c 4caf e3bd 033f 84bc
000003b0: 4a46 93bc a967 9a3d 18dc 3e3e 39d8 6ebd
000003c0: 3243 14bc 9f8f 25be b903 4a3e bdf1 d43c
000003d0: fc17 24bd e35d 26be 8d39 fcbc 1de0 a73c
000003e0: 65dc 903b aafb 973d 2c1f f63d f51f 86bd
000003f0: 5ce2 dc3c 011f b4bc 69a9 0ebe 0183 873c

fc2.bias f4 [100]
0.18099274 0.07288634 0.18296514 0.1408468 0.1685292 0.18657671 0.19605614 -0.19076617
0.18914561 -0.14661185 0.16347703 0.17671478 0.09990634 -0.18231516 0.17581028 -0.19613098
0.20250332 -0.19540372 -0.10232721 0.17296076 0.14076275 -0.18917745 0.19670656 -0.1803864
-0.18579307 -0.1788162 0.18525107 0.18553045 0.19794956 -0.1617745 0.17829932 -0.36769846
0.1831784 0.18729183 -0.17907867 0.08738386 -0.18421179 0.1677198 -0.17601179 0.13701575
-0.16864969 -0.18950856 0.18378337 -0.2011844 0.08036671 0.10481286 0.16666692 -0.17114787
0.18480903 0.18552719 0.13028303 -0.1370902 -0.18277453 -0.18834955 0.1836689 0.19357525
0.18913405 -0.17726955 0.09364375 -0.18541409 0.17140296 0.03412733 0.18645543 0.14024623
0.17099535 -0.1003137 -0.093307175 0.19508083 -0.16382994 -0.165896 0.17506097 -0.18305793
0.1560439 -0.18663743 -0.21316648 0.18502173 -0.18989095 -0.1712278 -0.26103735 -0.19609058
-0.16559537 -0.20684756 -0.17917243 -0.12393691 0.013654229 0.18227531 -0.17095754 -0.082404114
0.16127643 -0.2715265 -0.17497034 -0.09491913 -0.22546108 -0.000618595 -0.120539814 0.07318317
-0.12738088 -0.19200678 0.17474508 -0.15266593
00000000: 2956 393e 6f45 953d 375b 3b3e 253a 103e
00000010: eb92 2c3e f70d 3f3e f1c2 483e 3558 43be
00000020: 63af 413e 6b21 16be 8666 273e b8f4 343e
00000030: b29b cc3d d3b0 3abe 9c07 343e 8fd6 48be
00000040: 085d 4f3e ea17 48be ee90 d1bd a01c 313e
00000050: 1c24 103e bcb7 41be 726d 493e 36b7 38be
00000060: 8a40 3ebe 981b 37be 75b2 3d3e b2fb 3d3e
00000070: 4ab3 4a3e 37a8 25be 1994 363e f942 bcbe
00000080: 1e93 3b3e 6ec9 3f3e 6660 37be 4ff6 b23d
00000090: 04a2 3cbe bdbe 2b3e 6f3c 34be db4d 0c3e
000000a0: 81b2 2cbe 880e 42be b531 3c3e 4903 4ebe
000000b0: 4d97 a43d 20a8 d63d bcaa 2a3e 6341 2fbe
000000c0: 943e 3d3e d7fa 3d3e ea68 053e 6061 0cbe
000000d0: 3f29 3bbe b4de 40be b313 3c3e 9738 463e
000000e0: 5bac 413e 2686 35be 4bc8 bf3d 31dd 3dbe
000000f0: 4284 2f3e 19c9 0b3d 2cee 3e3e b59c 0f3e
00000100: 6819 2f3e 4571 cdbd d517 bfbd 45c3 473e
00000110: 09c3 27be a4e0 29be 2f43 333e 8a73 3bbe
00000120: f9c9 1f3e e21d 3fbe 5048 5abe 5676 3d3e
00000130: c672 42be 5756 2fbe b0a6 85be f8cb 48be
00000140: d591 29be d9cf 53be fa78 37be a2d2 fdbd
00000150: fdb5 5f3c 61a6 3a3e 7e0f 2fbe 7dc3 a8bd
00000160: a625 253e 8505 8bbe 6d2b 33be f664 c2bd
00000170: 45df 66be 3529 22ba 94dd f6bd 0fe1 953d
00000180: 2270 02be 6d9d 44be 60f0 323e 7554 1cbe

fc3.weight f4 [1, 100]
1.3181007 1.0842502 1.3292708 1.3621379 1.3127297 1.2730198 1.4013202 -1.3364936
1.3296969 -1.2941115 1.2229007 1.306376 1.2447934 -1.3116547 1.2911837 -1.3971146
1.1970915 -1.3272257 -1.085288 1.3122283 1.3055853 -1.2934515 1.3923914 -1.4456451
-1.317423 -1.0846437 1.3101729 1.3314632 1.3901522 -1.5900182 1.3352123 -1.7263438
1.3502724 1.3364714 -1.0691025 1.1474345 -1.4138271 1.282873 -1.3106806 1.202546
-1.2935916 -1.3287324 1.4062941 -1.4222856 1.3181971 1.3234134 1.8101063 -1.3623259
1.2928083 1.3244008 1.2919308 -1.3464924 -1.2956247 -1.2919033 1.4376801 1.4834156
1.4851828 -1.2764021 1.2910773 -1.3184514 1.2637537 -0.9738653 1.3043883 1.2273463
1.2566701 -1.2543484 -1.3221513 1.3297622 -1.2904904 -1.3049846 1.3133109 -1.2961012
1.31528 -1.3477997 -1.7891015 1.2933753 -1.260504 -1.3262094 -1.2838348 -1.4528471
-1.2639046 -1.2944113 -1.3343915 -1.4456327 -1.0948728 1.2986326 -1.2398962 -1.6747775
1.2914578 -1.0408233 -1.2956952 -1.2956629 -1.4524755 1.4111784 -1.3150392 1.2830073
-1.1694411 -1.4340243 1.2116612 -1.2851803
00000000: 86b7 a83f b6c8 8a3f 8c25 aa3f 895a ae3f
00000010: 8707 a83f 50f2 a23f 765e b33f 3912 abbf
00000020: 8233 aa3f 72a5 a5bf 0388 9c3f 5437 a73f
00000030: 6455 9f3f 4de4 a7bf 8245 a53f a7d4 b2bf
00000040: 4b3a 993f 88e2 a9bf b8ea 8abf 19f7 a73f
00000050: 6b1d a73f d28f a5bf e239 b23f e60a b9bf
00000060: 51a1 a8bf 9bd5 8abf bfb3 a73f 636d aa3f
00000070: 82f0 b13f b785 cbbf 3de8 aa3f d5f8 dcbf
00000080: bad5 ac3f 7f11 ab3f 5ad8 88bf 22df 923f
00000090: 49f8 b4bf 2f35 a43f 62c4 a7bf 07ed 993f
000000a0: 6994 a5bf e713 aabf 7201 b43f 740d b6bf
000000b0: afba a83f 9c65 a93f 90b1 e73f b260 aebf
000000c0: be7a a53f f785 a93f fd5d a53f dd59 acbf
000000d0: 08d7 a5bf 165d a5bf e705 b83f 90e0 bd3f
000000e0: 781a be3f 2561 a3bf 0542 a53f 04c3 a8bf
000000f0: aec2 a13f 3c4f 79bf 32f6 a63f af19 9d3f
00000100: 91da a03f 7d8e a0bf 413c a9bf a635 aa3f
00000110: ca2e a5bf bc09 a7bf 921a a83f a5e6 a5bf
00000120: 185b a83f b384 acbf 4701 e5bf 528d a53f
00000130: 3258 a1bf 3bc1 a9bf b354 a4bf e5f6 b9bf
00000140: a0c7 a1bf 45af a5bf 57cd aabf 7e0a b9bf
00000150: cb24 8cbf 9839 a63f ebb4 9ebf 1c5f d6bf
00000160: 7d4e a53f b339 85bf 57d9 a5bf 48d8 a5bf
00000170: b8ea b9bf 7ea1 b43f 3453 a8bf 9539 a43f
00000180: 3fb0 95bf 1c8e b7bf b717 9b3f ca80 a4bf

fc1.weight f4 [100, 14]
0.18120532 0.1732824 0.1928683 0.24633652 0.12195954 0.16021812 -0.122729994 -0.23381025
0.020712981 -0.060846075 0.076221496 0.22374411 -0.13689233 0.19527182 -0.16562657 -0.046905838
0.018848015 0.11456142 0.13700743 -0.26561096 0.18133798 0.29374093 -0.19545053 -0.10882991
-0.20715934 0.008774228 -0.21380657 -0.12821116 0.012018457 0.034262393 -0.25798404 -0.0045761606
-0.24074025 0.06229993 0.1101518 0.22995505 0.24699302 0.015188001 0.13336308 0.24901655
-0.12912354 0.09510292 -0.031674895 -0.22900409 -0.2217202 0.13836119 -0.08293996 0.08337884
0.18666312 0.25252298 -0.1698302 0.1796152 0.2622086 -0.19034113 -0.24452081 0.16180763
-0.26883978 -0.063219555 0.0370631 -0.08047157 0.053405453 -0.15173261 -0.20619279 0.065598264
0.22486272 -0.10861897 0.1837737 -0.22017011 -0.28808194 -0.07788252 0.060399715 0.21746908
0.016341899 0.19156305 0.19549727 -0.2499598 0.10727872 0.260549 -0.03349126 -0.10900573
-0.05031542 0.1950019 -0.20592508 -0.050830133 0.07650418 0.20470105 0.14481275 0.23965988
-0.120771155 -0.24859183 0.24191989 0.011022014 0.11098367 0.11010371 0.15354276 -0.09278687
-0.033985533 -0.27125874 -0.02187017 0.109469354 0.12132143 0.14831738 -0.2884046 -0.17635287
-0.17633636 -0.11411063 0.26940084 0.14257298 -0.04678889 0.06535167 -0.100108474 -0.11551511
0.23332083 -0.22651082 -0.011304143 0.0020431434 -0.16494372 0.0793881 -0.03778215 0.10648638
-0.122816905 0.17683895 -0.0005890221 0.17495081 0.279633 0.27233005 0.2811239 -0.0030866717
0.16619886 -0.09659828 0.2771726 0.21558148 -0.16471653 0.16713338 -0.018548371 -0.17723906
-0.15932837 0.1591937 -0.0083845295 0.18850088 -0.08259895 0.20481242 -0.020812057 0.15287288
-0.21662252 0.21427596 0.31419837 -0.1780565 0.23479551 0.10699265 0.14575681 -0.055671617
0.15081042 -0.032727424 0.017021287 -0.19556376 -0.17853555 -0.007082114 -0.12801519 0.21028376
-0.19934128 -0.18257633 -0.038796946 0.10201437 0.17843546 -0.10765198 -0.23864664 0.019161155
-0.11723775 0.32748628 -0.09360054 0.25376165 0.007709229 0.26741827 0.27064463 0.102700286
-0.14530683 -0.07252719 -0.23047587 -0.21925731 0.24012724 -0.18312557 -0.24153647 -0.16766593
-0.0027523302 0.15083045 -0.083872296 -0.1664753 -0.25488636 0.15776561 -0.07241744 0.24497573
0.076704875 -0.15070131 -0.20744462 -0.05460366 -0.072810076 0.30648613 -0.29937372 0.06308558
-0.17808582 -0.15184034 -0.14567327 0.052532505 -0.009309298 -0.029879041 0.16935536 0.26354316
-0.17788674 0.21618429 -0.16366622 0.04325618 0.025755575 0.044762764 -0.074751794 -0.15728953
0.018724881 -0.2253758 -0.0047121854 0.10520987 0.023513867 -0.031132685 0.16461204 0.046049837
-0.029912228 0.04981055 0.11647433 -0.13485998 -0.020365426 0.07215796 -0.1912561 -0.23168315
-0.19296144 0.17433962 -0.00057105423 0.1402261 -0.026885591 0.0023547586 0.011859137 0.31407204
-0.3245385 0.14791165 -0.17006549 -0.09825731 0.079076305 -0.00437543 0.24144891 -0.04022291
0.03173572 -0.26382378 -0.21442387 0.12876794 0.22873062 -0.08252774 -0.23361896 -0.073779896
00000000: e38d 393e f170 313e 457f 453e a43f 7c3e
00000010: ecc5 f93d 3810 243e dd59 fbbd f46b 6fbe
00000020: 45ae a93c bc39 79bd 041a 9c3d 2d1d 653e
00000030: 812d 0cbe 56f5 473e 039a 29be 5620 40bd
00000040: 2767 9a3c 2e9f ea3d ad4b 0c3e 29fe 87be
00000050: aab0 393e 3665 963e 2f24 48be 37e2 debd
00000060: 9421 54be c8c1 0f3c 1cf0 5abe c949 03be
00000070: 10e9 443c b956 0c3d 7c16 84be 9ef3 95bb
00000080: 9d84 76be 362e 7f3d 4497 e13d 5679 6b3e
00000090: bdeb 7c3e 18d7 783c 5590 083e 32fe 7e3e
000000a0: f638 04be 52c5 c23d 89bd 01bd 0c80 6abe
000000b0: 9f0a 63be 8eae 0d3e 6ddc a9bd 86c2 aa3d
000000c0: 9e24 3f3e b14a 813e f8e7 2dbe 0ced 373e
000000d0: 3540 863e c9e8 42be aa63 7abe e6b0 253e
000000e0: 5ea5 89be 4179 81bd 7acf 173d 47ce a4bd
000000f0: adbf 5a3d cb5f 1bbe 3424 53be 6258 863d
00000100: 6a42 663e 9f73 debd 2c2f 3c3e 4674 61be
00000110: 7a7f 93be df80 9fbd b165 773d 37b0 5e3e
00000120: 72df 853c 1b29 443e 7030 483e 76f5 7fbe
00000130: f2b4 db3d ae66 853e 222e 09bd 653e dfbd
00000140: 8b17 4ebd 94ae 473e 06de 52be 4233 50bd
00000150: 39ae 9c3d 279d 513e cb49 143e 6669 753e
00000160: de56 f7bd db8e 7ebe d9b9 773e ad95 343c
00000170: 684b e33d 0e7e e13d 503a 1d3e 0b07 bebd
00000180: 6a34 0bbd 6de2 8abe 1229 b3bc 7831 e03d
00000190: 5f77 f83d 83e0 173e c5a9 93be d995 34be
000001a0: 8591 34be d5b2 e9bd e8ee 893e a7fe 113e
000001b0: b5a5 3fbd 19d7 853d ac05 cdbd 3093 ecbd
000001c0: a8eb 6e3e 74f2 67be 0335 39bc 42e6 053b
000001d0: 02e7 28be 3a96 a23d 75c1 1abd 8815 da3d
000001e0: 6e87 fbbd 4515 353e 9b68 1aba 4e26 333e
000001f0: 0e2c 8f3e d86e 8b3e 79ef 8f3e c249 4abb
00000200: 0930 2a3e 52d5 c5bd 91e9 8d3e 64c1 5c3e
00000210: 73ab 28be 0325 2b3e c1f2 97bc 287e 35be
00000220: fa26 23be ac03 233e 445f 09bc 6006 413e
00000230: a329 a9bd 59ba 513e 0c7e aabc b58a 1c3e
00000240: 4bd2 5dbe 286b 5b3e 9cde a03e 7154 36be
00000250: 3c6e 703e f61e db3d 4641 153e ec07 64bd
00000260: 0c6e 1a3e 310d 06bd 3a70 8b3c de41 48be
00000270: 06d2 36be 1411 e8bb 6a16 03be a054 573e
00000280: 1f20 4cbe 4af5 3abe 8ce9 1ebd e9ec d03d
00000290: c9b7 363e a478 dcbd c95f 74be dbf7 9c3c
000002a0: 581a f0bd 48ac a73e a4b1 bfbd 0ced 813e
000002b0: b39d fc3b 0ceb 883e ef91 8a3e 8754 d23d
000002c0: 50cb 14be 2389 94bd de01 6cbe fd84 60be
000002d0: eae3 753e 4585 3bbe 5655 77be 9eb0 2bbe
000002e0: 7060 34bb 4c73 1a3e 3dc5 abbd 8078 2abe
000002f0: 7780 82be 4f8d 213e 984f 94bd ebda 7a3e
00000300: 7217 9d3d 7251 1abe 5d6c 54be 16a8 5fbd
00000310: 731d 95bd c0eb 9c3e 8347 99be 0333 813d
00000320: 215c 36be 097c 1bbe 602b 15be 532c 573d
00000330: 0786 18bc e4c4 f4bc 7e6b 2d3e 21ef 863e
00000340: f127 36be 6a5f 5d3e 1e98 27be 642d 313d
00000350: 5bfd d23c 2959 373d 7817 99bd 8210 21be
00000360: ec64 993c eac8 66be ad68 9abb 4678 d73d
00000370: 27a0 c03c f909 ffbc 0f90 283e c19e 3c3d
00000380: 7d0a f5bc 2606 4c3d 188a ee3d bc18 0abe
00000390: 65d5 a6bc 8dc7 933d a4d8 43be 593e 6dbe
000003a0: af97 45be 1686 323e cdb2 15ba 6e97 0f3e
000003b0: 2c3f dcbc 4b52 1a3b d34c 423c 0dce a03e
000003c0: e929 a6be 2776 173e a625 2ebe 213b c9bd
000003d0: c2f2 a13d c45f 8fbb 623e 773e c7c0 24bd
000003e0: 50fd 013d e913 87be ee91 5bbe bedb 033e
000003f0: 5c38 6a3e 4e04 a9bd cf39 6fbe ea19 97bd
