mujoco/vail/save_model/ckpt_4000_vail.pth.tar (torch_old, 107670 bytes, 20 tensors)

fc1.weight f4 [100, 11]
00000000: 429c 33bd f1ec 2ebe 6de7 773e 739a 73be
00000010: d927 bb3e 2710 c53d d740 e6be f7b0 213f
00000020: d5c4 d93e 2aa5 d73e 4ec0 c6bd 2380 f63e
00000030: 78f5 2abe f1c7 c1be 5d1c 32bf eb71 91bd
00000040: bae6 963e 1d14 f23d a52d 943e 20db f73e
00000050: cc1d c73d 4d4b 433f a32f 973e 716d c2bd
00000060: f17b f8be 4f9a 193e 2c8e 8c3e c408 a0be
00000070: 67d8 14be 5bc0 093f 53d1 16bd f603 463e
00000080: 7926 cd3e 5b9b 0b3f 2f55 f0be 3bc6 ab3d
00000090: eb7d 843d 883e bb3e 2408 6a3e 9019 e6be
000000a0: 6c3f 86be e1ef e7be ca89 993d dcae 9fbe
000000b0: b251 37bd c24e 1c3f c187 0b3f 4eeb 93be
000000c0: 12bb 893e 719e ed3d 04f4 d7be 4372 dc3b
000000d0: 613a 953b 1488 51bc 3e55 063e cce2 e43e
000000e0: dfa7 21be 9c1b 91be a400 b5bd 1b7c 1c3f
000000f0: 0b6f 683e b03d b13e 7553 97be e98a 763d
00000100: 987f f6bd 1c6a 433e 8f27 e03e 2313 febe
00000110: 42ce 563f 7c7c 82be d222 853d 0e74 26bf
00000120: ab84 2c3e d57a 9cbe f1cc 4dbc ac82 ae3c
00000130: e115 afbd 354e 8cbe 3ff9 853e fa7b 09bf
00000140: 0271 2d3c 468b fb3e 7e44 df3c d75f 063f
00000150: 6d25 013e 20b5 23bf 5fcb 2e3f 38d7 983e
00000160: 70d5 f8bc d726 873d c51a 95be b6d3 9cbf
00000170: 5d9c 913e 73fa af3e 6055 b03e bc37 73be
00000180: cfd9 603e b9b1 70be ac1f f13e 666e 713e
00000190: 5860 123f e477 14be 3c2a 3e3e 35d4 e13b
000001a0: e591 f2be 611b 283f bbf7 e83e 5bb8 103f
000001b0: f85c a23e 7d4e b5be 2b4b e1be 3bd1 f6be
000001c0: ddbc 78bd 31ca da3c 5c7e 283d d6fd a83e
000001d0: 3f73 c8bd ba10 473f bb82 673e 4c57 953e
000001e0: f1f6 c1be bcae bfbe 80ae 09bf 456d 1a3f
000001f0: 6624 6a3d 8353 a33e ef6d 2fbe a157 1c3e
00000200: c902 e6be 1547 403e 4f17 24bf e95d 223f
00000210: 31ee 71be 623c e83e 30cc 07be b75f 1d3f
00000220: 4617 083f e0de 9abe f591 a5be 39cf 383e
00000230: c610 9b3e c92a 8a3e 5abc a03e 57fa 893e
00000240: ce97 17be 6d90 f63c 0e1a 663f 51ba c2bd
00000250: 12ed 90be 2655 843d fed8 a6bc 69d1 293f
00000260: 8df2 04bf c372 15bd d2fa cbbe 0235 c4be
00000270: cf4e 933e 6c71 083f 1858 2a3e 0098 26be
00000280: 5a39 993e 8287 f83e 4f79 3abc 5ea5 583e
00000290: 0338 f33e 9012 5d3b 7e27 19be 101f 083f
000002a0: f7d5 773e 5064 f73e 55a7 773e 2e14 14bf
000002b0: 6ac9 bdbd d10f 203e 0b7e f93e 3b07 4cbe
000002c0: cc68 ff3d 596c a6be 1136 afbd d829 bd3e
000002d0: 140c 143e eea6 0c3f a1a2 44be 9dac 533f
000002e0: 3bc0 c43e 7d96 b73e 00ca dc3e 4e76 97bd
000002f0: 6eaa dbbe f79d 0a3f 9795 12bf f2d2 373e
00000300: 7342 6cbe 1cbe 213e 8118 793d c522 79be
00000310: a6f9 59be 99ac cfbe 0b92 953e fdc2 b63e
00000320: 03c6 aa3e 5901 74be c4c8 c13d 6c00 193f
00000330: a52b bf3d 1ff8 ae3e 85e5 ddbd c5c4 0dbf
00000340: 6c5f a73e 2bef 7f3d e196 1c3f 241a f8be
00000350: fe49 5fbe 648e f63e d839 a1be ebcc 1cbf
00000360: 7b21 20be 7b29 b7be 4e13 8b3e 3563 a9be
00000370: a5e0 44bf 5269 8ebe b5f8 743e 5210 c03e
00000380: 3bdb c13e 632b 5d3e 468c 8cbe 9ad6 ae3b
00000390: c7db 86be 0bf9 4dbe c1ea 9dbd 53d2 043f
000003a0: 8f55 26bd f88a 3f3f d61a 773d f0f8 f03e
000003b0: 5047 adbe 8604 b4bd 3c0e 653e 3169 b63e
000003c0: 556e 183f 0459 b4be 0268 2bbd 96b0 9cbd
000003d0: e1b2 6ebe 8241 14be 75ee 773e 5243 5e3f
000003e0: 070d 12be d3ec 9abe 7b4c 05bf 6f24 b23d
000003f0: 60bc 19bf 4b4e 9d3c 34a1 fabc 11b2 abbe
-0.04385019 -0.17082573 0.24209376 -0.23789386 0.3655384 0.096222214 -0.44971344 0.6316065
0.42532983 0.42118198 -0.09704648 0.48144636 -0.16695201 -0.37847856 -0.6957453 -0.07101806
0.29472905 0.118202426 0.28941074 0.48409367 0.0972248 0.76286775 0.2952853 -0.094935305
-0.4853206 0.1500027 0.2745222 -0.31256688 -0.14535676 0.53809136 -0.03682072 0.19337448
0.40068415 0.5453393 -0.4693999 0.08387419 0.064693294 0.36571145 0.22854668 -0.44941378
-0.26220262 -0.453002 0.07496984 -0.31188095 -0.044755645 0.61057675 0.5450402 -0.2889046
0.26900536 0.11602486 -0.42178357 0.0067274882 0.0045540784 -0.012788791 0.13118455 0.44704282
-0.15786694 -0.28341377 -0.08838013 0.6112687 0.2269861 0.34617376 -0.2955586 0.06019107
-0.12036055 0.19083446 0.4378018 -0.49623975 0.83908474 -0.254856 0.06500782 -0.65020835
0.16847484 -0.30562463 -0.012561069 0.021302544 -0.08549095 -0.27403417 0.26166722 -0.537048
0.010586025 0.49129695 0.02725434 0.5248999 0.12611933 -0.6394825 0.6827907 0.298517
-0.030375212 0.06599205 -0.29121986 -1.2252109 0.28439608 0.34370765 0.34440136 -0.2375173
0.21958087 -0.23505296 0.47094476 0.2357727 0.5717826 -0.1449886 0.18570799 0.006891752
-0.47376934 0.65666777 0.45501503 0.56531304 0.31711555 -0.35411444 -0.4400266 -0.48206505
-0.06072699 0.02670774 0.04113613 0.3300616 -0.097876064 0.777599 0.22608463 0.29168165
-0.37883714 -0.37438 -0.5378189 0.6032298 0.05716362 0.31899652 -0.1713178 0.15267803
-0.44924 0.18777116 -0.64098066 0.63424546 -0.23626019 0.45358568 -0.13261485 0.61474174
0.5316051 -0.30248165 -0.3233792 0.18047799 0.30286235 0.26985767 0.313937 0.26948807
-0.14804003 0.030098164 0.89883506 -0.09508193 -0.2830587 0.06461553 -0.020367142 0.6633516
-0.51932603 -0.0364864 -0.39839798 -0.38321692 0.28771064 0.5329807 0.16635168 -0.16268921
0.29926568 0.48540884 -0.011381461 0.21156833 0.4750367 0.0033732988 -0.14956471 0.531724
0.24202715 0.4831872 0.24184926 -0.5784329 -0.09266932 0.15631033 0.48728976 -0.19924633
0.1247116 -0.32504538 -0.08555234 0.36945987 0.14457732 0.54942214 -0.19202663 0.8268526
0.3842791 0.35857 0.43122864 -0.07395612 -0.42903465 0.54147285 -0.57259506 0.17951563
-0.23072223 0.15795177 0.060814384 -0.2432967 -0.2128664 -0.4056137 0.29212984 0.3569564
0.33354196 -0.23828639 0.09462121 0.5976627 0.093344964 0.34173676 -0.10834793 -0.5537837
0.3268999 0.062483948 0.6116772 -0.48457444 -0.2180557 0.4815551 -0.31489444 -0.6125018
-0.15637772 -0.35773835 0.27163166 -0.330835 -0.7690528 -0.27814728 0.23922999 0.3751245
0.37862572 0.21598582 -0.2745077 0.005335641 -0.26339552 -0.20114534 -0.077107914 0.5188343
-0.04060894 0.74821424 0.060328327 0.47064924 -0.3384347 -0.08789925 0.22368711 0.3562713
0.59543353 -0.35224164 -0.041847236 -0.076508686 -0.23310424 -0.14478114 0.24212058 0.8682147
-0.14262782 -0.30258808 -0.52069825 0.086983554 -0.6005306 0.019202372 -0.030594446 -0.3353429

fc1.bias f4 [100]
00000000: fb0e 1abe 59cd d9be 7d27 18bd 30c8 a23d
00000010: 0dfc 873e efea 8abd cf51 babe c667 07bd
00000020: c455 d2be 91b0 94bd 3de3 863e f4f9 333d
00000030: 8d47 b3be 5672 803e f6d6 9f3e 8f92 34be
00000040: ad5c 843d 180a 423e 142b 6ebe 7c30 c63e
00000050: f28f a63c 197a 93be 5c8c c03e 2524 b0be
00000060: 2b1f e83b 5930 5b3e e5a1 a2be c1d1 9fbe
00000070: 8daa 5b3e 13f9 973e 4e0a 6bbe c985 b53e
00000080: f669 903e 50dd cabd f948 12bf 3615 2b3e
00000090: 2193 983e 7a1f 1b3d 36d0 80be 791c 263d
000000a0: 3ec8 8f3e fbce b63e 9754 5bbe c008 08bf
000000b0: d5a1 623d b26a 8b3e a030 b0be 3c8c 0abf
000000c0: edda 023f 8276 f63e 4985 4c3e b148 a83e
000000d0: 29d3 c1be 28ee 49bf e479 f43d 40ad df3e
000000e0: 5477 943d 2bee 233f e0bf 8b3e f1eb a03e
000000f0: 4e9b 15bf 92d3 c73e e825 6e3e a2ad 3a3e
00000100: 86a0 dcbd 017b 0fbf 251a 6bbe ce45 a9be
00000110: 5cae 89be 7ba0 e23d f0ce 953e b9dc 9dbd
00000120: 3c32 333e 5358 503e c7ef 02bf b82f 17bf
00000130: 64dc 153f 8b51 553e 4fa0 c73e 1de5 143f
00000140: 7e4b 07bf 40a9 85be 2a2a df3e 6db1 ca3e
00000150: 5c11 cf3e 2d3e 17bf c22b 60be 9804 0f3f
00000160: 03b1 463e 4ab7 7cbe 0d4a fc3e 5fec a13e
00000170: cd9b d9bc c16c 373e 15df 80bd 82ec aebd
00000180: c607 e73e 3748 833d 5bbd c23d 1acf b73e
-0.15044777 -0.4253948 -0.037147034 0.07948339 0.26559487 -0.06783091 -0.3639054 -0.03305795
-0.4108106 -0.0726024 0.26345244 0.043939546 -0.35015526 0.2508723 0.3121869 -0.17634033
0.06462989 0.18949163 -0.2325862 0.38708866 0.02033231 -0.2880409 0.37607086 -0.34402576
0.0070837936 0.21405162 -0.3176414 -0.31214717 0.21451779 0.29682216 -0.2295315 0.35453632
0.28205842 -0.09905493 -0.571426 0.1670731 0.2979975 0.037871815 -0.25158852 0.040554497
0.2808246 0.3570479 -0.21418987 -0.5313835 0.055330116 0.2722984 -0.34412098 -0.5412023
0.51115304 0.4813729 0.19972719 0.3286796 -0.37856415 -0.7887902 0.11937311 0.43686867
0.072493225 0.6403529 0.27294827 0.3143001 -0.584401 0.39028603 0.23256648 0.18230298
-0.10772805 -0.56047064 -0.22959192 -0.3306107 -0.26890838 0.110657655 0.29259443 -0.07708115
0.17499632 0.20346193 -0.5114712 -0.5905719 0.58539414 0.20831887 0.38989493 0.581621
-0.52849567 -0.2610569 0.43586856 0.3958849 0.40442932 -0.5907925 -0.21891692 0.55866385
0.19403462 -0.24679294 0.49275246 0.3162565 -0.02656355 0.1791258 -0.062925495 -0.08541204
0.45123118 0.06410258 0.09508773 0.35900193

fc2.weight f4 [100, 100]
00000000: 803b 49be 9395 ca3e 1b2c 853b 5049 293e
00000010: cbbe 8fbd 2784 b4bc 9698 ae3d 8a99 eebe
00000020: 8786 8fbd 1ce3 d9be ccb0 1ebe a33c 76bc
00000030: 695c e2be 9bb0 cf3d 97cb 943d 5f27 8bbe
00000040: 6c2c 78bb 94dd 123e 6412 9abc 0249 a1be
00000050: ee4e 9bbe bd72 56be d94c b9bd 52a9 06be
00000060: 168a 053d c7b8 613e 2bf0 dfbe db4f cebe
00000070: 3bb4 b5bd b0e1 0abd ecbd 123e 5fae d13d
00000080: 421e f33e b9f5 41be a28b 543d c02d 253e
00000090: 6c10 fcbc df83 3a3e 1c4b 163c 0dd3 2b3e
000000a0: 206d 013f 3571 8a3d 3ca8 40be f097 843d
000000b0: 2fa3 e2bd 9c1c 1c3d cd05 5fbe 3a2f 0ebf
000000c0: 4d75 1cbe f3d5 a03b 72c6 e2be b069 9cbe
000000d0: 26db e23e 0ca9 a0be f608 be3d 545e 623e
000000e0: 1ddf 833d 5ce3 e63e 5873 753d 4bc9 183e
000000f0: e1ad b13d 2c80 6f3e f5a2 753e c49d 1c3e
00000100: 2984 7a3e e025 bc3d c5e7 9fbd 3c98 0ebe
00000110: 7bd9 b3bd 681b 113d a7cd f2bc fd83 33be
00000120: f1af 87bb fce2 033e a6b3 d5bd 1c3c 2abe
00000130: 9ca6 02be cd0b 4e3e 5eba 623e 8230 573e
00000140: d17d 843d b488 4bbd ffcb e2bd ba7a 143d
00000150: 93b5 a13e 9b9e dbbe afb9 a53d 4d63 d7bd
00000160: 2f02 b6bd 5b88 0abc ad1d 09be 830e bfbd
00000170: 7ec9 95be 23d9 b53c 8cd2 61be dce7 49be
00000180: ce69 183f 8c8b aa3e a5e0 e03d b725 453e
00000190: 969b b7be 7461 c4bd 82bb 883d 5e9f a93c
000001a0: 15d9 7ebd 627c 10bd a692 813e 2812 2e3e
000001b0: 034e c33b 6675 cd3e 7215 053d 04e0 31be
000001c0: 1405 3bbe ce10 b53d 33cc 8d3e 0790 37be
000001d0: b87b 38be 4288 963e d77a 97bd e507 2fbe
000001e0: e544 54be 1f67 cb3d f274 54bd 8070 4f3e
000001f0: ddaf 49bc 0765 a33e caeb 85be d918 12be
00000200: 6a63 15bd f1bf 293e 0cbc f9be f3f6 583e
00000210: 980c 5fbe 626a e7bd a167 323e ffef 19be
00000220: ed13 1cbe 4b13 ba3e 83ae 503e ae02 14be
00000230: 1a15 903e dc53 863d b5cd a3bd 38d8 f1bc
00000240: c48e c43d 99fc 8b3e f8d8 ae3d 1655 a3be
00000250: 833c 793d b49f f23d a5b6 ffbc e19e 86bd
00000260: 9668 993c eae7 9fbe dbd0 20be 2f1d 113d
00000270: 686d 603e f346 1b3e d91b 9cbd 9766 3a3e
00000280: 6ac7 a6bd 2327 ad3e 9c43 d0be eac6 c23e
00000290: 7173 643d 3ac2 03bd 244e 4ebe 2820 7e3d
000002a0: 505a 6c3e c114 053e 5063 053d fb27 e43d
000002b0: 256e c5bd 4cd2 62bd 9534 1fbe 6595 07bd
000002c0: 31a2 be3d 8d45 7d3d b7a8 b43e 1bd2 993e
000002d0: 4b83 afbd 0b49 31be d397 88be cbc9 dfbb
000002e0: ef07 a43d cf86 e7bc 19e5 543e 4841 3a3e
000002f0: 093e cb3c f479 19be 36c8 723d f40c 2f3e
00000300: 721d 8c3e 0c4c 053f ee99 343d 5838 7a3d
00000310: ab5e 403e 35b8 d13d 827f c53d 06d7 e43c
00000320: fc90 db3e dd3c 323d 83b0 663e 835d 8c3d
00000330: 30f6 ad3e f481 05be 2f90 b03d 1ea6 debd
00000340: f138 013e a30d 593e 9b16 533e cbfa 0f3d
00000350: 97cc 1c3d f293 d5be 79f3 c13e 03c9 953e
00000360: 277f 633e dcc7 3e3e c502 573e 6c93 1a3e
00000370: 8183 013e acea 653e 25e1 fcbd 3c9d 9d3e
00000380: 9fa5 ea3d 2fb5 563b 59e3 d73d b429 833e
00000390: 0639 833e 3c8b 21bc c21f aebe d3a6 403e
000003a0: 3597 b9bc 2b4b b53e 6272 753e 47fc 2bbe
000003b0: 0ff6 ddbe 36ef 90be fc52 983d 1662 2b3d
000003c0: a7cd 833d e9f2 9abd 3406 a7bd ad7c 39be
000003d0: 89c9 083e 1851 d43e ab94 553e c958 04be
000003e0: d18c 9dbd 3488 ce3d 5548 5d3d 850b 7abe
000003f0: f134 053d d923 05be 0cf2 6539 1da3 24be
-0.19651604 0.3956724 0.0040640957 0.16531873 -0.07018813 -0.022035671 0.08525197 -0.46601516
-0.07008081 -0.42556083 -0.1549713 -0.015029105 -0.44211128 0.10141107 0.07265394 -0.27178475
-0.0037868274 0.14342338 -0.018807597 -0.31501013 -0.30333656 -0.20942207 -0.09047861 -0.13150528
0.032602392 0.22043143 -0.4373792 -0.402953 -0.08872267 -0.03390664 0.14330262 0.10238337
0.47484022 -0.18941392 0.051890977 0.16130733 -0.03076955 0.18214367 0.009173181 0.16779728
0.50557137 0.06759874 -0.18814176 0.06474292 -0.11066281 0.03811322 -0.21779557 -0.5554081
-0.15279122 0.0049083172 -0.44292027 -0.30549383 0.44307822 -0.31378973 0.09279053 0.22106296
0.0643904 0.45095336 0.059924453 0.14920537 0.08675743 0.23388737 0.23987944 0.15294558
0.24464478 0.091869116 -0.078078784 -0.1392526 -0.087817155 0.035426527 -0.029639078 -0.17530818
-0.004140847 0.12879556 -0.10434656 -0.16624492 -0.12758869 0.20121689 0.22141406 0.21014598
0.0646931 -0.049690917 -0.110740654 0.036249854 0.31583843 -0.42894444 0.08092057 -0.10516987
-0.08887135 -0.008455361 -0.13390227 -0.0932894 -0.2925529 0.022198265 -0.22052974 -0.19717354
0.59536445 0.3330959 0.109803475 0.19252668 -0.3586089 -0.095889 0.06676389 0.020705875
-0.062218744 -0.03527487 0.25307196 0.16999114 0.0059602275 0.4012863 0.032491155 -0.17370611
-0.18263656 0.08841096 0.27694854 -0.17926036 -0.18015945 0.2940083 -0.07396477 -0.17092855
-0.20729406 0.09931778 -0.05186934 0.20257759 -0.0123099955 0.31913015 -0.26156455 -0.14267291
-0.03647176 0.16577126 -0.4877628 0.21187954 -0.21782148 -0.11299588 0.17422344 -0.15032957
-0.15241976 0.36342844 0.20379071 -0.14454147 0.281411 0.06558964 -0.0799822 -0.029522046
0.09597543 0.27341154 0.08537477 -0.31900853 0.060848724 0.11846867 -0.031215021 -0.065732725
0.018726628 -0.31231624 -0.15704672 0.035428222 0.21916735 0.15163784 -0.07622499 0.18203197
-0.08143504 0.3381892 -0.40676582 0.38042384 0.055774156 -0.03216765 -0.20146996 0.062042385
0.23081326 0.12996198 0.032565415 0.11140438 -0.09640149 -0.055376336 -0.15547402 -0.033101458
0.09308279 0.061833907 0.3528497 0.3004311 -0.08569964 -0.1731302 -0.26678333 -0.0068294755
0.08009326 -0.028262524 0.20790519 0.18188965 0.024809854 -0.14987928 0.059272967 0.17094785
0.27366215 0.52069163 0.04409211 0.06108889 0.18786113 0.10240213 0.09643461 0.027934562
0.42884052 0.043515075 0.22528271 0.068537734 0.3397689 -0.13037854 0.08621251 -0.10871528
0.12619378 0.21196608 0.20614092 0.035151284 0.03828105 -0.41714436 0.37881067 0.29254922
0.22216474 0.18630928 0.2099715 0.150953 0.12647821 0.22452801 -0.123476304 0.30784023
0.11457371 0.0032761802 0.1054141 0.25617754 0.25629443 -0.009859856 -0.34008604 0.18813638
-0.022655109 0.3540891 0.23969415 -0.16795455 -0.4335179 -0.28307503 0.07437703 0.04184159
0.064357094 -0.07565863 -0.0815548 -0.18113966 0.1335813 0.4146812 0.20857494 -0.12924494
-0.07692874 0.100845724 0.05402406 -0.24418457 0.032521192 -0.13001956 0.00021929311 -0.16077848

fc2.bias f4 [100]
00000000: 9e61 dd3d f76e 213e 3a91 34be 3c4c 67be
00000010: ef74 a2be b9e5 b4be 9a28 65be d0d1 793e
00000020: b643 313d 4315 b3be 36ec 053d 8301 963e
00000030: d5aa 08bf c34a b73b 2ee5 dcbd f8c0 0f3e
00000040: 551b 35be 7ff0 573e a0fb 873d 6f52 363e
00000050: 6843 1cbb 6205 e13c 1609 413e 6d22 1dbe
00000060: 03f2 26bd cd55 ecbd d938 80bd 6e4e d03d
00000070: 76ce 60bd 1869 a53c dd67 b93e a711 eb3d
00000080: 7db7 b33d 4764 a3be 5bb6 ad3e a836 683d
00000090: cc00 24be 129d c2be fb1b b6be e25e 853e
000000a0: 892e 16be 4972 3f3e f490 923e bc8f 8bbe
000000b0: b27a cc3e 3ce6 49be 0f91 90bd dd0a db3d
000000c0: 0bfb 79be c106 4ebe 5006 19be 7b1c 36be
000000d0: b4e8 e13e daf6 cdbe 722b 933e c620 ab3d
000000e0: fa08 8ebe 55c8 92be 9cee 75bb 64f4 843d
000000f0: c4b0 3a3d b88e af3d 83f2 44be d81f bc3d
00000100: b423 533e e15d 7dbe 1377 e43d bd6e 993e
00000110: 014e ddbd a445 773e c863 a13c 646f 76be
00000120: f01d 183d 0214 5f3e 1567 67be 930b 393e
00000130: 50c3 05be fe09 e6bd 68cb 9abe a318 0abe
00000140: 3864 193e 02a0 fcbd da14 923d 2857 9bbe
00000150: 9226 0a3e c05d 793e 50dd b7bd 2635 9b3c
00000160: adbd b03e d157 aa3c 4286 b5bd b2fe c6be
00000170: 4b17 9d3e b61b 203b 8917 4abe 402c 8d3d
00000180: 924d bb3e aeef 5a3e 3c39 243e 6142 c33c
0.108096346 0.15764986 -0.17633525 -0.22587675 -0.31729838 -0.35331514 -0.2237877 0.24396443
0.043277465 -0.3497716 0.03269597 0.29298028 -0.5338567 0.005593629 -0.107859 0.14038455
-0.17686208 0.21087836 0.066397905 0.17804883 -0.0023843888 0.027468387 0.18851122 -0.15345164
-0.040758144 -0.11539803 -0.06260843 0.10171209 -0.054884396 0.020191714 0.36212054 0.11477976
0.08775232 -0.31912443 0.3392819 0.05669275 -0.16015929 -0.3801046 -0.35568222 0.26048952
-0.14666189 0.1869594 0.28626215 -0.27258098 0.3993736 -0.19716734 -0.07058918 0.106954314
-0.24412172 -0.20119764 -0.14943814 -0.17784302 0.4412285 -0.40227395 0.28744084 0.083558604
-0.27741224 -0.28668466 -0.0037526255 0.06491926 0.045578733 0.08572143 -0.19233136 0.09185761
0.20619088 -0.24742843 0.11155524 0.299673 -0.10805894 0.2414766 0.0197009 -0.2406593
0.037137926 0.21784976 -0.22597916 0.18070821 -0.13062787 -0.112323746 -0.30233312 -0.1348596
0.14979637 -0.123352066 0.07132883 -0.30339932 0.13491276 0.24352169 -0.08977759 0.018946242
0.3451971 0.020793827 -0.08863498 -0.38866192 0.30681834 0.002443058 -0.1973554 0.06893206
0.3658262 0.21380493 0.16037458 0.023835363

fc3.weight f4 [3, 100]
00000000: ad91 cc3e ef2d 613d a77f 15be f4d4 14bd
00000010: 3334 c43e 1173 8e3e ef05 cc3d df7e 21bf
00000020: db55 41be 4041 423e 96cf a8bd ee41 763e
00000030: ca3f b7be 6f22 a63d 824b 00be 31e4 7f3d
00000040: edc2 8a3e 6e18 d93e d584 d43e 5597 873e
00000050: 896d 703e 5b5c 8a3e 86f2 78be 84b6 11be
00000060: 23dc 833e 7203 db3e 46b7 b83e 624b ccbe
00000070: 0d24 963e d502 063e 14f5 60bd 8542 4fbe
00000080: 08c8 b33d 4639 cc3d e9a1 e43c 297e f5bd
00000090: e1eb 22be 184c d2be b381 e1be dd68 c03e
000000a0: 75fa 293e 228b 493e cf56 04be c15e 8ebd
000000b0: f6d0 d93d 3e7e 283f b078 86be 6dd5 dfbd
000000c0: d18b d6be 79e8 c3be aae9 e3bd 8037 043e
000000d0: b2f4 243f a498 71bd 881b 503e 1ec0 72be
000000e0: 9439 ac3e d1f6 1fbf bc55 99bd 5cca 483e
000000f0: 04a5 663b 880e af3e 0137 b0bd ff77 16bc
00000100: 1f92 d3be 8a73 b33e 5e1e b23c a2de 24be
00000110: b8ba c53d 6293 7b3e 0ca3 623e 79fd f83c
00000120: 3970 cebe c1a6 743d 4c01 883e 612f 3ebe
00000130: 51b7 283e cac4 b6be 4f67 54be bd83 6f3d
00000140: 8606 263e c110 753e 3b21 363e 0ce4 ad3e
00000150: f2f1 203e 1da9 c4be b5fa bc3e dba6 a53b
00000160: 2aa9 25bd 9d51 71bd 7aee 963e 3f44 45bf
00000170: 26f9 463e ccfc 3bbc 8ac9 a9be d1b4 e63d
00000180: 0b7d e53e ea37 e6be 4460 b4bd d49d b6be
00000190: 8f4a 1f3e 3964 cfbc 3795 853d c977 1bbd
000001a0: 2c52 983e 03bd f93d b6ca 75bc 7f09 393e
000001b0: bc20 653e 8679 b7bd 255b c4bd f1c9 803e
000001c0: 20c6 683e a633 b9be f8e3 9fbb a3c8 d93d
000001d0: a3ad 48be 0538 5ebe bfa9 f4bb c530 573d
000001e0: a8b4 a2be 6083 543e feae 94be 0ec9 643e
000001f0: 3e45 f03d 4b19 9c3e 875c aabe 11dc 3cbe
00000200: eb02 4abe 5640 cd3e 6ddf 993e 07ad dd3e
00000210: 17ea 0fbf 81a2 6a3e 362c cdbd 8c4f 7bbd
00000220: c07b 07bf 39af 263d 2bfe 713e eddc a93e
00000230: d8e9 93bd c819 85be a9bb 883e 56a8 3bbe
00000240: faed bbbe 66cc b8bd 214f e83d 3999 eebe
00000250: 2089 be3e 06a4 e53d 8687 10bf 6082 3dbe
00000260: 0568 1c3d f373 eabe 79cc 5b3c e98a 6b3e
00000270: a3f3 033e b8c6 24bd a8cd 1cbb 0fd0 d23c
00000280: 9977 cd3e c60f 53be 99b6 a0be 1df2 e73e
00000290: eedd 523c de78 e9bc d1c8 7038 dafd 5c3e
000002a0: 40f0 d43e b80a 3f3e 20ad 363e 0966 113f
000002b0: 2516 b63d eb37 35bb 5fcc 6a3e af6e 0f3e
000002c0: 9ada 3ebe 910c 86bd bf24 ec3d 668f 93bd
000002d0: 4fb3 07be c7be 76be 8349 15be 0c79 733d
000002e0: fb79 dabe 2f57 0abe 91fb 8b3e 1dcf e43c
000002f0: afc7 aabe a077 b53e dc2c 08be de1b 853e
00000300: dc1f 6fbe 65ad b6be bf65 363e fb32 063f
00000310: 7882 37be c8a5 61bd 9e3e cf3e 7a91 e53e
00000320: 90a3 f43c ac5a 67be f886 a4be 70fa 21bc
00000330: df66 ad3e 74f8 89be db08 fcbe cb9b d8be
00000340: 465e d23e b2d9 033f 7cac 2c3e e94f 84be
00000350: 5976 fbbd a514 54be c34e 02bf 6e14 fb3e
00000360: f7ec 83be 655b 12bf a21d a53e e529 c03d
00000370: 2840 f13d 2e4e 923d e232 d63b b15c a93e
00000380: 4108 9c3d dda7 f3bd 950e 873d 4e1a 32be
00000390: b0df dabc b560 6cbe cf55 d53d 01c5 b8be
000003a0: 95ef 083f ab5d da3e 965c c4be beed 14be
000003b0: 16a1 663d c5bf 9cbe ace8 f53d cae7 023e
000003c0: 22d9 e23e 0176 04bf f622 973e d4c4 0a3f
000003d0: 75bf 013f 568d 343d 9ef4 84be 22c4 14bd
000003e0: cb39 603e 4abb a73d c409 e43e 5e5a f23e
000003f0: a450 b5be 4ecc d03e e99a fdbe 1bd8 0dbd
0.39954892 0.054975446 -0.14599477 -0.0363359 0.38321075 0.27822164 0.09962069 -0.63084215
-0.18880408 0.18970203 -0.08242719 0.24048588 -0.35790855 0.081120364 -0.12528804 0.06247348
0.27101842 0.4240145 0.41507593 0.26482645 0.23479284 0.27023587 -0.24311265 -0.1422978
0.25753888 0.42776066 0.36077327 -0.39901263 0.2932438 0.13087018 -0.054921225 -0.20240219
0.08778387 0.099718615 0.027909236 -0.11986954 -0.15910293 -0.4107368 -0.44044265 0.37580004
0.16599448 0.19681981 -0.1292374 -0.069516666 0.10635559 0.6581763 -0.26263952 -0.109293796
-0.41903546 -0.382633 -0.11128552 0.12911797 0.64435875 -0.05898346 0.20323002 -0.237061
0.3363768 -0.62485987 -0.07487056 0.19608444 0.0035193572 0.34190774 -0.08604241 -0.009183883
-0.4132242 0.35049087 0.021742996 -0.16100553 0.096547544 0.24567941 0.2213251 0.030394303
-0.40319994 0.05972934 0.2656349 -0.18572761 0.1647618 -0.35697013 -0.20742534 0.058475245
0.16213426 0.23932172 0.17786114 0.33963048 0.15717295 -0.38410273 0.36910024 0.005055291
-0.04044453 -0.058915723 0.29478818 -0.7705726 0.1943098 -0.011473846 -0.33161575 0.11264957
0.44821963 -0.44964534 -0.08807424 -0.35667288 0.15555786 -0.025316345 0.06522601 -0.037956033
0.29750192 0.12194254 -0.015001943 0.18070029 0.22375768 -0.08958726 -0.09587697 0.2515407
0.22731829 -0.36172217 -0.004879471 0.106339715 -0.19597487 -0.21701057 -0.0074665244 0.052536745
-0.31778455 0.2075324 -0.29039758 0.22342321 0.11731957 0.30488047 -0.33273718 -0.18443324
-0.19727676 0.40088147 0.30053273 0.43296072 -0.5621657 0.22913553 -0.10018198 -0.06135516
-0.529232 0.04069445 0.23632114 0.33176365 -0.072223365 -0.25996232 0.26705673 -0.18325934
-0.36705 -0.09023361 0.11343218 -0.46601275 0.37213993 0.112129256 -0.5645679 -0.18506765
0.03818514 -0.45791587 0.013415449 0.23002209 0.12885909 -0.040228575 -0.0023926292 0.025733976
0.40130308 -0.20611486 -0.3138931 0.45301905 0.012870295 -0.028500017 5.7407484e-05 0.21581212
0.41589546 0.18656433 0.1783948 0.5679632 0.088909425 -0.0027651738 0.22929524 0.14007066
-0.18638077 -0.065453656 0.11530446 -0.072050855 -0.13251995 -0.24096213 -0.14578824 0.05944161
-0.4267119 -0.1350982 0.27340367 0.02793079 -0.33355471 0.3544283 -0.13298362 0.25997823
-0.23351997 -0.35679165 0.1781225 0.5242154 -0.17920864 -0.055089742 0.4047746 0.44837552
0.029863149 -0.22593182 -0.32134223 -0.009886369 0.33867547 -0.26947367 -0.49225506 -0.4230636
0.4108755 0.5150405 0.16862673 -0.25842217 -0.122784324 -0.20711 -0.5090143 0.49039024
-0.25766727 -0.57170707 0.3224917 0.09382991 0.11779815 0.07143818 0.0065368274 0.3307853
0.07618762 -0.11897252 0.06594578 -0.17392847 -0.02671799 -0.23083766 0.10416757 -0.36087802
0.53490573 0.42649588 -0.38351887 -0.14543816 0.056305967 -0.3061506 0.12007269 0.12783733
0.44306284 -0.5174256 0.2951886 0.54206586 0.50682765 0.0440801 -0.25967878 -0.03631986
0.21897046 0.081900194 0.445387 0.4733457 -0.35413086 0.40780872 -0.4953225 -0.034629922

fc3.bias f4 [3]
00000000: cabb d83c e9aa de3c a761 05be
0.026456732 0.027181106 -0.13025533

fc1.weight f4 [100, 11]
00000000: a2f7 17be d019 963e 471d 35bd da9e eabe
00000010: cd72 5f3c fa7f 2ebd c6aa c3bd 0cc4 cb3d
00000020: d5b4 443d fa56 773d 8785 9c3d 8fd8 433d
00000030: 6cce 75be 5e5c 303e 37f9 1f3e 66e7 2ebd
00000040: 279d 3dbe d5bb bb3d 0a34 9bbe a986 823e
00000050: acd1 c33e 3c5f 3c3e 9d53 60be c0d0 6b3d
00000060: e9b5 67be f5c8 2f3e 5a19 423e 9101 893e
00000070: cb7a dfbc b1d7 163f 692a 23bf 28ef e4be
00000080: ee7a b1be 9e67 dc3d a140 cdbe 3951 853e
00000090: e762 cf3e 115f c33d d3aa 29be 371f b73e
000000a0: 3370 d53d 2792 17be e285 bbbc 3c02 37bd
000000b0: 5afd c9bd 44d0 ac3d 4e71 f53c 2bdc 92be
000000c0: 7177 96be 11f4 89bc ed17 84be 277f 3b3e
000000d0: 7eee 3ebe c75e 49bd 64e9 fe3b 026d 7ebe
000000e0: 8772 8c3e fff8 8abc 89be 57be 8cc2 08be
000000f0: 87ff 373e 6b81 0bbe cfca 9c3e 76bb 5bbe
00000100: b397 88be 0ec0 1abe 2fe7 bbbe 3f14 033f
00000110: 7107 5d3d 80b1 3d3e 2f7a 82be 599e 0ebf
00000120: 51fe 443e 0231 b3be 4fa4 023f 19bc a33e
00000130: 528b 063c 4def 8b3e 2541 093f baed 013e
00000140: eef2 15bf f306 cdbe 3e69 fb3e 0423 febd
00000150: f6bb a3be eddd c13e 71e3 043e c91e 803e
00000160: bba5 55bd 51df 0bbe 16c7 39be 636a a23e
00000170: e7fb 30be 297f 02bf a19e 723e e8dc 7a3e
00000180: 3e83 7dbe 3771 6bbe 7509 8c3e 84f7 103e
00000190: beeb 503e d4bd 48be 3d90 46be f5ca b53e
000001a0: 363a f4bd 206b ab3d 3763 773e 344a 69be
000001b0: 5fed cfbd 2748 333e c827 e0bc 2198 57be
000001c0: 4049 723e 518d 9d3e 6a41 ad3d 4d34 3c3e
000001d0: 9fc5 843e 6b08 38be e8d7 c43d 2c17 e33d
000001e0: 7b62 bf3a 7b8b 873b 6bb0 a7bd fc57 823e
000001f0: c11c 3e3e f493 2f3e e44d 203d a0c6 063e
00000200: 3f33 b1be 1978 f13e 87c5 733e 95b9 b5be
00000210: 350b 2fbe 5e8e e6bc f00d 693e 97d2 753e
00000220: c8ef 243e 73b5 81bd 09cb 013e 9036 aebe
00000230: fd2c e13e 1853 663e 5844 ecbc c175 b83d
00000240: 4acf 58bb 9974 b63e d530 383e 1216 803e
00000250: 7fa3 cb3e 7784 263e 04eb f9be 88e4 1e3f
00000260: f82f b43e 580a d93e 5a06 5b3d f69b 1ebf
00000270: 1288 e53e 4806 ee3e abf6 08bf 8e66 a53d
00000280: 868b 89be f9c9 c53d 57ba b1bd b8ad 5fbe
00000290: 03f1 18be 25bf 543d 7dab 84be 06b8 993e
000002a0: 39a7 eebb b132 043d e9cc bb3d 4cce aa3e
000002b0: 3174 acbe a6cb c03e dd6c a13e c73c 813e
000002c0: d264 a6be 8084 89be b8a4 123e 6847 a9bb
000002d0: f3c2 e7be b2ad 31be 61de 4dbd f9ce 6bbd
000002e0: c144 b0bd b048 5ebd 2732 dcbd 889e d33e
000002f0: 4bdc 353e 477d 08bf 94d4 813d 52db c5bb
00000300: bf05 893d d9dc 0b3f d913 b2be 35a8 a03e
00000310: 9184 9a3e 1168 09bf 3c23 a03d 214a c2be
00000320: 1c0a 2f3d 4836 9c3e d015 f43d a5ab 903b
00000330: 2d17 803d cc9d 84bd 8721 3d3e 84fe 433e
00000340: cec0 bebd 6ccf 273e 3984 63be 0208 2a3e
00000350: 5ef2 603c b207 ea3d ba82 f4bc 2325 923e
00000360: 90a2 15bf 7942 253f 5ef5 f53e ece5 053f
00000370: 5f95 f3bd c82d cabe a595 783e 42ba dd3d
00000380: 30e5 ffbd b7dd 083f 4463 02be 060e 583e
00000390: 32db 8ebe d26c 62be 895e abbe 1e1e ed3e
000003a0: 904c de3d 33ad cdbe d727 7fbe c908 f93e
000003b0: 3355 77be f188 353e ab24 903e 51eb b1be
000003c0: c267 92be 5db8 38be ffe7 25be b1a9 253e
000003d0: d950 8cbe f9d6 f9bc be24 65bd 117f fc3d
000003e0: a41f 4cbe 39cc aa3e afc4 b6be a246 aabe
000003f0: ee04 c6be cc0f e03d dc02 8abe fb0f 67be
-0.14840558 0.29316568 -0.044217374 -0.4582432 0.0136382105 -0.042602517 -0.09554057 0.09949502
0.048024017 0.06038568 0.07642656 0.04781395 -0.24004525 0.17222735 0.15622412 -0.042701147
-0.1851698 0.091666855 -0.3031314 0.25493363 0.38245904 0.18395704 -0.21906896 0.057572126
-0.22627987 0.17166503 0.18954983 0.26759008 -0.027280232 0.5892287 -0.6373659 -0.44713712
-0.346641 0.10761951 -0.4008837 0.2603853 0.40505144 0.09539617 -0.1656907 0.35766003
0.10421791 -0.14801846 -0.022890989 -0.044679865 -0.09862776 0.08438161 0.029961254 -0.286836
-0.29388002 -0.016840013 -0.25799504 0.18310224 -0.18645665 -0.049162652 0.007779287 -0.2484627
0.27431127 -0.016964434 -0.21068777 -0.13355464 0.1796857 -0.13623588 0.3062348 -0.2145823
-0.26678237 -0.15112326 -0.36699817 0.5120277 0.053962175 0.18524742 -0.25483844 -0.5571037
0.19237639 -0.34998327 0.51031965 0.31979445 0.0082119275 0.2733101 0.5361503 0.12688342
-0.58573806 -0.40044364 0.4910373 -0.124090225 -0.3197934 0.37864628 0.12977387 0.25023487
-0.052160006 -0.13659407 -0.18142352 0.31721792 -0.17283593 -0.5097528 0.23693325 0.24498332
-0.24757096 -0.22992407 0.27350965 0.1415692 0.20402429 -0.19603664 -0.1939096 0.35506406
-0.11925165 0.08370042 0.24158941 -0.22782212 -0.10152697 0.17507993 -0.02736272 -0.21054126
0.23660755 0.30771878 0.08459742 0.18379326 0.25932023 -0.17971961 0.09611493 0.11088404
0.0014601493 0.0041365004 -0.08187946 0.25457752 0.18565656 0.17146283 0.039136782 0.13161707
-0.3460941 0.4716194 0.2380582 -0.3549315 -0.17094119 -0.028144058 0.22759223 0.24006115
0.16107094 -0.06333437 0.12675108 -0.34026003 0.43979636 0.22492635 -0.028841183 0.09006835
-0.0033082538 0.35635832 0.17987378 0.25016838 0.39773175 0.16261469 -0.48812115 0.6206746
0.35192847 0.42390704 0.053472854 -0.6195673 0.44830376 0.46489167 -0.53501385 0.080762014
-0.2686426 0.09657664 -0.0867812 -0.21843612 -0.14935689 0.051940102 -0.25912085 0.3002321
-0.007283118 0.032274906 0.09169943 0.33360517 -0.33682397 0.3765537 0.3152837 0.25241682
-0.32498795 -0.26858902 0.14320648 -0.005165983 -0.45265922 -0.17351416 -0.050260905 -0.05757043
-0.08606864 -0.05426854 -0.10751753 0.41331887 0.17759816 -0.5331616 0.06339374 -0.006038108
0.06690549 0.5463386 -0.34780768 0.31378332 0.30179265 -0.5367442 0.078192204 -0.3794718
0.04273425 0.30510163 0.11918223 0.004414993 0.062544204 -0.0647541 0.18469821 0.19140059
-0.09314118 0.16387719 -0.22218408 0.16604617 0.01372966 0.11427249 -0.029847492 0.28543958
-0.58451176 0.64554554 0.48038763 0.5230396 -0.11893725 -0.39488053 0.24275835 0.108265415
-0.12494886 0.5346331 -0.1273318 0.210991 -0.27901608 -0.22111824 -0.33470562 0.4631204
0.10854447 -0.40171203 -0.24917541 0.48639515 -0.24153595 0.1772802 0.28152975 -0.34749845
-0.28594786 -0.18039079 -0.1620178 0.16178013 -0.27405432 -0.030498015 -0.055943243 0.123289235
-0.19933945 0.33358935 -0.35696933 -0.33257014 -0.38675636 0.10940513 -0.26955307 -0.2256469

fc1.bias f4 [100]
00000000: 9130 3c3f 9f4a 27bf e5a2 173f b144 cfbe
00000010: 5cbe 1abe be4f 3a3f 3faa b5be 6b26 e1be
00000020: fbcb 16bf 9563 5bbf d73e b83e 8866 823e
00000030: 50bb 9c3e 8deb 07bf 1b88 1e3f 727c 24bf
00000040: d7cf 2fbf 1efa 3abf 02da 33bf c83a 36bf
00000050: e8cf 0d3f 8cc7 1cbe ee06 1a3f 8d80 09bf
00000060: 0166 4e3f aa89 413f fbd4 8ebe 4f73 d6be
00000070: 4ad7 243f 0cb8 123f de5d f4be b9dd 13bf
00000080: c999 be3e d730 0ebf c5c3 15bf 4be7 073f
00000090: bb7e 6cbe b5e4 143f b124 fa3e d379 4e3e
000000a0: e10b 4e3f fa71 14bf bdd1 643f 1de2 0dbf
000000b0: ef3e d63d 6274 31bf ee67 21bf 3e06 c4be
000000c0: 3c6c 15bf 34cc c33e 67b0 4c3f 247a 1abf
000000d0: 805c cd3e c807 24be 026c b6be 734c 02be
000000e0: 0bb8 903d 20dc da3d 3b39 42bf 68c6 d2be
000000f0: f58e d93e 9b7b 0d3f 8cd7 ff3d 4b71 0a3e
00000100: fe7d 433e 26dc 37bf f78c 663d c1fa 39bf
00000110: 6dff 2e3f d78a 253f 9509 253d 0768 2b3f
00000120: 4a23 b9be 4ae8 35bf 0ad1 1abf 8b6c 02be
00000130: a088 2dbf 6b7d c8be b6ae 9b3e f1e5 84be
00000140: 1e4f 2bbf 2577 01bf 7595 f8be ac16 db3e
00000150: 34a9 70bf 2a19 27bd b033 17bf 48a6 27bf
00000160: c94f 62bf a0c8 babe d2eb c03e 119d 2c3e
00000170: 9c0e 3e3f 5bdb 26bf ec3e 35bf 1844 0a3e
00000180: 2ef1 413f 60c2 e7be 928e 42bf e7c4 b2be
0.73511606 -0.6534824 0.5923293 -0.40482095 -0.15111679 0.72777927 -0.3548145 -0.43974623
-0.58905 -0.85698825 0.35985443 0.2546885 0.30611658 -0.53093797 0.6192643 -0.6425239
-0.68676513 -0.730379 -0.7025453 -0.71183443 0.55395365 -0.15310496 0.60166824 -0.5371178
0.80624396 0.75600684 -0.27896866 -0.41884848 0.64391005 0.57312083 -0.47727865 -0.57760197
0.37226704 -0.55543274 -0.58501846 0.530873 -0.23095219 0.5816148 0.48856118 0.2016366
0.80486876 -0.57986414 0.89382535 -0.55423146 0.104612224 -0.6931821 -0.6304921 -0.38286012
-0.5836828 0.38241732 0.7995667 -0.6034262 0.40109634 -0.16018593 -0.35629278 -0.12724476
0.070663534 0.10686517 -0.75868577 -0.41166997 0.4249188 0.5526673 0.12492284 0.1351978
0.19091031 -0.71820295 0.05628678 -0.72648245 0.683585 0.6466498 0.04029234 0.6695561
-0.36159736 -0.7105757 -0.6047522 -0.12736718 -0.677866 -0.39158186 0.3040673 -0.2595668
-0.669176 -0.50572425 -0.48551527 0.42790735 -0.94008183 -0.040795483 -0.59063244 -0.654881
-0.8840299 -0.3648119 0.37679917 0.16856791 0.7424104 -0.6517846 -0.70799136 0.13502538
0.75758636 -0.45265484 -0.75998795 -0.3491585

fc2.weight f4 [100, 100]
00000000: 34b2 35be f119 3f3e 7a03 cbbe 7559 183e
00000010: 5154 6dba 72ab 66be 3888 0d3e 5744 0c3e
00000020: 7276 213d 3d63 fdbc da3f 113d 77f1 cb3d
00000030: 9d57 173d 0ef2 a43e efbf 30bd 53ca d63e
00000040: ab51 403d f7a6 e73e f73b 263e c833 e83e
00000050: 7599 c7bd e1cf d9bd 80f1 6cbe 2a35 da3e
00000060: de31 eabe 52f9 9bbe cf9f ca3d 0bde 4c3e
00000070: 0f6b c8bd 0750 b1bd 300c a83e ebf8 213c
00000080: 9cdb cc3c 1c99 1c3e 4ef0 8f3d 3cec babe
00000090: 2f72 363e b908 c1bc e9e5 c63d 9c52 373e
000000a0: 5c2e 96be 0853 fb3b 9a4e 2dbe e76c ef3e
000000b0: b393 8fbe 524a e33e c0fa 163e 596e 243e
000000c0: a282 0f3e dd72 59be 9d5f b6be 18f3 de3d
000000d0: 6bf9 aa3d 1df7 a33e 7824 833e 0724 953e
000000e0: a3db 153d 878a 763e 444f 5f3e 2093 d6bc
000000f0: b82b acbd 2ee1 4fbe bed8 7d3d 4d45 743d
00000100: a299 dc3c 22ef db3c ad91 993e 081c e43e
00000110: 6805 50be a298 5abd 4b8e 933e 0635 80bd
00000120: 684d 1b3d 39ec 853e 86f1 8d3e 2edd 283d
00000130: 3f9d f93d f5da 89bd e29c 03bd 7460 593d
00000140: 75f5 3e3e bbc0 c63b fa15 4b3e 44e7 fd3d
00000150: ff8d b73d d9bb 223d 5972 b6bc 18bb 10bc
00000160: f4a4 9f3e e981 1f3e 99d1 ad3d ccf6 e83d
00000170: 223f c1be 9e6e d63d 7a8d 85bd 5df9 90bd
00000180: 9032 0ebf 7044 973e 48d4 c93e a134 ef3d
00000190: aa14 113e 3e9e df3d 0d51 2bbf 2cb5 01be
000001a0: 74ad 0a3d 9d6d 67bd 2545 bc3e 7374 3d3e
000001b0: 8026 1dbe 7bd9 58be ae41 92be c416 543d
000001c0: 82e3 083e 8ea0 f2bb 4524 2bbd 6113 a23d
000001d0: d8b4 57bd 3a26 fa3d 0e4d 86bd 75f8 523e
000001e0: ba5b 99be 2990 3cbe 2798 b5bd 4b2a 7b3e
000001f0: d406 0d3d b7dd 763e 7c9f a3bd f13a 38be
00000200: 6381 abbe 435f edbc 49e9 b43e 035f 323e
00000210: 5725 06bf e509 eabc 1f99 eb3d d06b d4be
00000220: c606 bb3e 1a8f 3a3c 77ae 4b3e 947e b23e
00000230: b5c0 163d 170d d5be dff3 a73d bee3 253f
00000240: 8118 d3be 21c1 213e a872 953e 13d9 803b
00000250: 81b7 95be 4198 e0bd 80b9 aebc 3af1 babd
00000260: 9055 f8b8 49d1 0b3f 9563 3c3f 8065 023f
00000270: 0570 adbe f053 9d3e 5610 9d3e 43b2 23be
00000280: 2210 a8bd 527c 9dbd 8f7a 153e 75f9 27bd
00000290: 4d31 193e d625 bebc 789b 0a3f 9c90 e23e
000002a0: 8d06 a93d 30bb cb3d 4ae0 dd3e 397b 8cbc
000002b0: 2b18 a2bd f97c 49be befd ecbd 3e1b 6e3e
000002c0: 0acf b5bc 3dad a0be 4d91 a63d 6a2d 703e
000002d0: 0e67 f2bd 7660 87bd 93a4 1a3e 46eb 7b3d
000002e0: ed00 5db9 93ed bfbd 2596 97bd 5368 153e
000002f0: c2ea 353e ee6d 8c3e 68f5 a53e 5537 6f3e
00000300: 57fd 42be 4ebc e3bd 297e 32bc d2a0 9a3c
00000310: f437 f3be 9e7c 2d3f 3781 da3e 4d63 223d
00000320: fad5 0d3e 6f46 92bd 95c4 b5bd 50c9 18be
00000330: e5e2 bdbd a237 de3d 36bf 21bd a779 6dbe
00000340: 745c 4cbe 5c99 75be ecaf 063e fbb9 b63d
00000350: 38b1 d43d 5c68 653d e489 903c bb1c e6bc
00000360: 9282 49be 6992 e83d af5d fabd c141 833c
00000370: c57c d63d a9eb 5dbd 9278 e13c ca42 023c
00000380: 1dbf d63c affd 8a3d 9226 a53b 95db f03c
00000390: 1fce 003e 3146 fc3d 8d9a 04bc c8b6 4bbe
000003a0: fe9b 1b3e b547 043e 01bd 63be b952 5dbd
000003b0: 4324 7cbd 3874 1d3e cf00 353e 23f6 6d3c
000003c0: b735 d03d e59f b9bd 34be 22bd 8b53 b53d
000003d0: cc6c 5abd dad4 04bd 7785 48bd 9b5d df3c
000003e0: 1238 24be 483c bfbd e776 803d 46c7 fcbd
000003f0: d8af eabd eb89 9f3e 7ef9 143d af06 273d
-0.1774376 0.1866224 -0.3965109 0.14877875 -0.00090533966 -0.22526339 0.13821495 0.13697945
0.0394196 -0.03093111 0.035461284 0.09958165 0.03694879 0.32215923 -0.043151792 0.41951236
0.046952885 0.45244572 0.16233812 0.45352006 -0.097460665 -0.10635353 -0.23139 0.42618686
-0.4574117 -0.30463654 0.09893762 0.20006578 -0.09786045 -0.08657842 0.32821798 0.009886007
0.025007062 0.15292782 0.07028256 -0.36508358 0.17816995 -0.02356373 0.09711821 0.17902607
-0.29332244 0.00766981 -0.16924515 0.46762773 -0.28042373 0.4439264 0.14744091 0.1605772
0.14014676 -0.21235223 -0.35619822 0.1088621 0.08348354 0.3202447 0.2561376 0.2912905
0.036586415 0.24076281 0.21807581 -0.026193202 -0.08406776 -0.20300743 0.06197428 0.059636403
0.026928727 0.026847426 0.29993954 0.44552636 -0.20314562 -0.05336822 0.28819498 -0.062601134
0.037915617 0.26156786 0.2772333 0.04122656 0.121881954 -0.06731216 -0.032132037 0.0530705
0.18648322 0.0060654557 0.19832602 0.12397626 0.089626305 0.039729927 -0.022271322 -0.008833669
0.31180537 0.155769 0.08487243 0.11375198 -0.3774348 0.10470317 -0.06521125 -0.07078812
-0.555459 0.295444 0.3941977 0.1167996 0.14168039 0.10918854 -0.6692055 -0.12666768
0.033856824 -0.05650102 0.36771503 0.18501453 -0.15346718 -0.21176712 -0.28565735 0.051779523
0.13368037 -0.0074043935 -0.041782636 0.079138525 -0.0526627 0.122143224 -0.06557666 0.20602591
-0.29952794 -0.18414368 -0.088669114 0.24527852 0.03443034 0.24108015 -0.079894036 -0.17991234
-0.33497152 -0.028976088 0.35334232 0.17419057 -0.52400726 -0.028569171 0.11503815 -0.41488504
0.36528605 0.011386657 0.19890772 0.34862196 0.036804873 -0.4161155 0.082008116 0.6480063
-0.41229632 0.15796329 0.29189038 0.0039321273 -0.29241565 -0.1096654 -0.021328688 -0.091280416
-0.00011841499 0.5461622 0.7358945 0.50936127 -0.33874527 0.30728102 0.30676526 -0.1598597
-0.08206202 -0.07689728 0.14597534 -0.041009385 0.14960213 -0.023211401 0.54143476 0.44250953
0.082532026 0.099478126 0.4333518 -0.0171486 -0.07914766 -0.1967658 -0.11571835 0.2325258
-0.02219345 -0.3138217 0.08133183 0.23454824 -0.11836062 -0.06610195 0.15101843 0.06150367
-0.00021076547 -0.093714856 -0.07401685 0.14590578 0.17765334 0.2742762 0.32413793 0.23360951
-0.19041954 -0.11119901 -0.010894337 0.018875513 -0.47503626 0.67768276 0.42676708 0.03964548
0.13851157 -0.071423404 -0.08875386 -0.14920545 -0.09271792 0.10850455 -0.039488994 -0.23190938
-0.19957143 -0.23984283 0.13153046 0.08922192 0.10385364 0.056007728 0.017643876 -0.028089872
-0.19678715 0.113560505 -0.122249 0.016022565 0.10473017 -0.05417982 0.027523313 0.007950494
0.026214177 0.067866676 0.0050399983 0.02940158 0.12578629 0.123180754 -0.008093488 -0.19893944
0.15196225 0.12917979 -0.22240068 -0.05403397 -0.06155802 0.15376365 0.1767609 0.014524016
0.10166495 -0.090637006 -0.039732173 0.08853825 -0.053326413 -0.032429554 -0.048955407 0.027266314
-0.16037014 -0.093376696 0.06272679 -0.12342696 -0.11459321 0.3115991 0.036370747 0.04077786

fc2.bias f4 [100]
00000000: da27 673d 35af bb3d c6d2 8b3e 3e69 943d
00000010: a763 5e3e b06f 4f3e 719a b93e c31b 59be
00000020: 4daf 8c3e 21a0 35be 35e9 773e 953b 713e
00000030: 1ebc 7b3e 00ff 09be 5a55 313e e677 d4bd
00000040: f1b8 813e d358 76be b089 19be 1026 3a3e
00000050: d17c 083e ca33 31be 899b b23e 1f44 a8be
00000060: ded0 8abe 0e51 8cbe bea3 503e a56f 443e
00000070: 880e 803e f6a7 08be 2ef0 563e 4b72 03be
00000080: 1a3d 663e b745 ab3e 1775 4ebe e30e 5dbe
00000090: d04c 8bbe 80ae 53bc f186 6abe 500c ac3e
000000a0: 019a 91be d73f 05be cf57 763e 62a9 7abd
000000b0: 3dab 653e 36a1 9f3d f224 a03e d187 62be
000000c0: b391 573e 5e9b 74be af49 853e 71d1 f2bd
000000d0: 15b7 76be 47d2 3dbe b1b3 953e 0e05 8b3e
000000e0: 7047 a0bc e8e2 85be cac1 013e f4a5 35be
000000f0: 7306 7b3e d1da 54be 6cf0 773d b732 813d
00000100: e455 543e 0f58 2dbe b79a 6cbe 5a4a 5a3e
00000110: 4139 13bd 9426 3abe 615d 7e3e ba54 92be
00000120: aebd 883e e1d7 8bbe 6f29 58be 8b6f 803e
00000130: 882f b3bd e1e6 8fbe 326b 46bd 4b68 95be
00000140: 1253 2dbe 65b1 7cbe 3c42 06be fd46 acbd
00000150: 2b76 f6bd e85f 803e 300f 10be b624 64be
00000160: e7b7 893e 8903 5abe 5fd0 74bd 9cf5 19be
00000170: 1bbb b6bd a488 aa3e fd05 69be 7a16 9b3e
00000180: cd0e 50be cab5 45be f4ba 8d3e b021 68be
0.05643449 0.091642775 0.27309245 0.07246636 0.21717702 0.20257449 0.36250642 -0.21201997
0.27477494 -0.17736866 0.24210055 0.23557885 0.2458348 -0.13476181 0.17317715 -0.10374431
0.25336412 -0.24057321 -0.1499393 0.18178582 0.13328864 -0.17304912 0.3488429 -0.32864472
-0.27112478 -0.2740559 0.20374963 0.19183214 0.25011086 -0.13345322 0.20990059 -0.12836568
0.22484246 0.33451626 -0.20161854 -0.2158771 -0.2720704 -0.012920022 -0.22903039 0.33603144
-0.28437808 -0.13012634 0.24056934 -0.061196692 0.22428603 0.077944204 0.31278187 -0.22122122
0.21051674 -0.23887393 0.2603278 -0.11856354 -0.24093278 -0.18537246 0.29238656 0.27152294
-0.019565314 -0.26149678 0.12671581 -0.17739087 0.24514179 -0.20786597 0.06053202 0.06308501
0.2073589 -0.16928123 -0.23105894 0.21317425 -0.035943273 -0.18178779 0.24840309 -0.28580266
0.26707214 -0.2731314 -0.21109556 0.250851 -0.087493 -0.28105834 -0.048442073 -0.29181132
-0.1692622 -0.24677046 -0.13111204 -0.084119774 -0.120342575 0.2507317 -0.14068294 -0.22279629
0.2689812 -0.21290411 -0.05976903 -0.15035099 -0.08922406 0.33307374 -0.2275619 0.30290586
-0.20318146 -0.19307628 0.27681696 -0.22669101

fc3.weight f4 [1, 100]
00000000: e0dc e33f 99c6 0940 1c98 893f 078f b13f
00000010: dc85 973f 8031 7e3f 42c3 963f a87c 82bf
00000020: 861d 903f d655 85bf 2e8b 883f 11f6 7f3f
00000030: 590e 833f bafc a4bf b2c7 853f abf8 a6bf
00000040: 07e7 9e3f 5647 88bf ab90 bebf cf36 c23f
00000050: e55f be3f 7890 89bf 3333 983f 937c 91bf
00000060: c9e3 87bf 75f3 99bf d243 7f3f 5259 9f3f
00000070: 1dc8 8a3f 0075 b8bf 3a29 953f 4d2a 90bf
00000080: 1e19 863f 98a0 953f 6da8 88bf cbce 8cbf
00000090: a404 aabf 7c60 9c3f 0d67 81bf 8035 973f
000000a0: 1f48 85bf 594b 92bf 4268 8c3f f36d b3bf
000000b0: e956 853f d6fe a93f 56f2 8e3f 1c91 86bf
000000c0: a3ca 963f a1e5 82bf 533f 953f 4beb 85bf
000000d0: af63 89bf 7c7b a7bf d482 8a3f 46d6 7b3f
000000e0: 1f17 7e3f 64f4 85bf 2cac 873f fbc0 77bf
000000f0: d889 8b3f 145b 66bf efd6 d43f aee6 c53f
00000100: 93ff ab3f fb70 9cbf 020d 8abf 1c47 883f
00000110: f9bf a9bf d453 99bf f6c4 9e3f b693 8fbf
00000120: 011c a03f c7ed 8abf 62be 8abf 353e a23f
00000130: ac41 a9bf de79 91bf d9ff 8dbf 1253 8ebf
00000140: 4792 70bf 32b9 9bbf aba9 6dbf 2cb2 85bf
00000150: 120b a4bf 3537 9d3f 919a 86bf cbbf 87bf
00000160: dbea 933f 8ba5 a5bf 7636 98bf 141d 9fbf
00000170: 4fd0 d8bf 3d27 8e3f bc85 87bf 8209 923f
00000180: 7253 a9bf d302 bcbf 6e83 863f 0b56 80bf
1.7801781 2.1527464 1.0749545 1.3871773 1.1837726 0.9929428 1.1778338 -1.0194292
1.125901 -1.041682 1.0667474 0.9998484 1.0238754 -1.2889626 1.0451567 -1.3044637
1.2414254 -1.064677 -1.4887899 1.5172976 1.4873015 -1.0747213 1.1890625 -1.1366142
-1.061639 -1.2027422 0.9971286 1.2449133 1.084232 -1.4410706 1.1653206 -1.1262909
1.0476415 1.1689634 -1.06764 -1.1000608 -1.3282666 1.2216945 -1.0109574 1.1813202
-1.0412635 -1.1429244 1.0969317 -1.4017929 1.0417148 1.3280895 1.1167705 -1.0513034
1.178059 -1.0226327 1.165995 -1.0462431 -1.0733546 -1.308456 1.0821176 0.9837383
0.9925403 -1.0465207 1.0599418 -0.9677884 1.0901442 -0.89982724 1.6628093 1.5461023
1.343737 -1.2221979 -1.078522 1.0646701 -1.326171 -1.1978707 1.2403858 -1.1216953
1.2508546 -1.0853814 -1.083935 1.2675234 -1.3223166 -1.1365316 -1.1093704 -1.1119101
-0.939732 -1.2165892 -0.9283702 -1.0444999 -1.2815878 1.2282473 -1.051592 -1.0605406
1.1556047 -1.2941145 -1.189162 -1.2430749 -1.6938571 1.1105725 -1.0587687 1.1409152
-1.322859 -1.4688362 1.0508859 -1.0026258

fc1.weight f4 [100, 14]
00000000: 96b7 3f3e e441 523e bc35 573e 2f43 813e
00000010: 1902 f73d 97a6 1d3e 93cd edbd e49f 79be
00000020: dc5e e4bb fb1a 563d 0560 0a3e 5fe3 393e
00000030: 9337 10be 7f73 2e3e dacf 34be 8076 85bd
00000040: f7a5 3c3c ccb3 133e 8c66 e63d 3ae8 97be
00000050: 51ee ea3d 657d 743e 3440 41be 5f3d 4dbd
00000060: 88d6 57be 2810 babc f503 5fbe ca8f 09be
00000070: 99da 453b 827f d4ba a6f3 7cbe 632e 5ebc
00000080: 1a1c 59be f21c 953d 2384 9c3d 88e9 833e
00000090: feb5 433e dcf6 dc3c 1e92 003e 2ad2 8d3e
000000a0: e0e9 fabd ac27 e03d 0136 863c 38c7 70be
000000b0: a7b6 37be 82db 473d 699f 533d a6bd 0a3e
000000c0: 716c e73d 557c 3e3e 99be 93be dd6f b03d
000000d0: 1f1a 8b3e d2d3 90be 9fa4 46be 997d 8f3e
000000e0: a502 abbe 93c0 8dbd 617b cd3d 7708 33bc
000000f0: de15 a0bd 1787 61be 8006 09be 3880 a5b9
00000100: 28ed ae3d e6a5 82bd 7a77 d33d 2a27 38be
00000110: 97f6 94be 0c6b 31be 079c 5a3d fee8 3a3e
00000120: 1a6d 213c 8f2f 4d3e ddcf 573e 700b 85be
00000130: c2f0 a03d 719f 963e 741a 63bd c2b4 bcbd
00000140: 0904 64bd 4726 673e 5b7d 5cbe 6a58 79bc
00000150: cb68 0b3d 1c6f 6f3e b79c a53d ec8e a03e
00000160: bd61 c7bd 381a 9cbe d35b 5a3e a119 98bc
00000170: 3c26 123d 77a4 a43d 3c4f e83d 7a33 05be
00000180: 0d66 b73b 9c1f 71be f718 1b3d c8e8 403d
00000190: 8f0d 833e 68c4 283e 5a8c a4be 3bee 04be
000001a0: c82c 1bbd a392 75be ff7c 7a3e f63d 1f3e
000001b0: a1a6 49bd c728 30bd 1d26 97bb 1286 e2bd
000001c0: 4b2d 653e 0c7d 39be fc77 54bc 5c60 b9bc
000001d0: 74b3 19be 9fce bc3d 3296 4fbc f438 f53d
000001e0: 0847 21be d271 5f3e b813 d0bc 27d2 243e
000001f0: 7705 a03e cb48 723e b93c 8b3e d304 253d
00000200: 9b5e 533e 2010 13be 467c 113e 051b 9b3e
00000210: 9701 b1bd cfb3 7b3e adbd 373d a15d 13be
00000220: 1195 2abe a7ac 923e ab93 9a3c 8578 eb3d
00000230: 6af1 3f3b e588 4c3e 827f 103d 4548 2c3e
00000240: 3841 5fbe 1eff 823e 5da9 9e3e e939 92be
00000250: 3dff 9b3e 988e 153c e11e 1b3e 87a4 14be
00000260: 2600 6f3e c190 5e3c ff28 8d3b a6cd 51be
00000270: a0e4 28be 982d 6bbd 08e8 26be 1e98 5e3e
00000280: 89ad 18be 8204 5fbe ded6 a4bd cce5 3d3d
00000290: 4ce6 193e 729e e5bd e59c 88be 6c94 25bd
000002a0: 6abf 39bd a814 4d3e a21e 753d d1e5 473e
000002b0: 3b58 b3bc b76d 5f3e d079 443e 22db cc3c
000002c0: 66b8 593d a415 24be 3ab9 77bd b691 50be
000002d0: 392c 803e 2dc4 7cbd 758a 92be 079e 3bbe
000002e0: 4970 0bbe 9104 293e dfd3 83bd e1b4 3dbe
000002f0: 9f97 99be 498b 733d 50b9 2dbe bdfb 383e
00000300: cf99 fe3d 5862 2dbe 84e0 65be bcb5 b8bc
00000310: 3804 babd ed92 923e b055 a1be 1589 963d
00000320: ee76 2bbe 3eec 25be f5c2 33be 07c4 b63d
00000330: 15fd 40bd c9eb 7ebd e772 3f3e 2d98 993e
00000340: fecb 5ebe f423 7d3e 7f50 1ebe ec35 ab3d
00000350: 81df a63d 9a2b 2a3d ff3f 97bd 1d11 d3bd
00000360: 42f7 8d3d 139f 7cbe c7d9 073c 9c02 b63d
00000370: e990 81bc 0c00 c3bd 04e2 303e d89f bc3b
00000380: 212a 2ebd 6db7 2b3d 3cd3 373d c57e 0fbe
00000390: 95bd 04bd 7c3f bd3c 1969 50be 5f95 32be
000003a0: f785 09be 8944 3d3e 1ab1 b43d 1853 443e
000003b0: eca8 5ebd 8ace af3a d174 ecbc d352 9c3e
000003c0: 3e58 b1be 7012 343e a319 20be c6eb e7bd
000003d0: b838 023d 7ce5 1abd ab64 3f3e 9010 d4bd
000003e0: 7887 b23b a89e 87be 54ad 6abe a6a1 e63d
000003f0: c5e9 773e 68d2 cabd 4493 24be c87a f2bd
0.18722376 0.20532948 0.21016592 0.2524657 0.12060947 0.1539558 -0.11611476 -0.243774
-0.006969316 0.052271824 0.13513191 0.18153141 -0.140837 0.17036246 -0.17657414 -0.06516743
0.0115141785 0.14424056 0.11250028 -0.29669362 0.114712365 0.23875959 -0.18872148 -0.050107356
-0.21077931 -0.022712782 -0.21778853 -0.13433757 0.0030190109 -0.0016212317 -0.2470232 -0.013560864
-0.21202126 0.072809115 0.076423906 0.25764108 0.19112393 0.02697318 0.1255574 0.27699405
-0.12251639 0.10945067 0.016383173 -0.23513496 -0.1794077 0.048793323 0.051665697 0.13548908
0.112999804 0.18602116 -0.28856352 0.08615086 0.27168366 -0.28286606 -0.19398735 0.2802551
-0.33400455 -0.06921496 0.10033298 -0.010927311 -0.07816671 -0.22024189 -0.13381386 -0.00031566783
0.08541328 -0.06379299 0.10325523 -0.1798369 -0.29094383 -0.17325991 0.053371456 0.18252942
0.009852672 0.20037673 0.21075387 -0.2598529 0.07858421 0.2941852 -0.05544515 -0.09214164
-0.05566791 0.22573195 -0.21532194 -0.015218833 0.034035485 0.23382229 0.080865316 0.3135904
-0.09735439 -0.30488753 0.2132409 -0.018566908 0.035680994 0.08039182 0.11343238 -0.13007918
0.005596882 -0.23547214 0.037865605 0.047096997 0.25596282 0.16481173 -0.3213833 -0.12981503
-0.037884504 -0.23981719 0.24461745 0.1555098 -0.049231175 -0.04300764 -0.0046126978 -0.11060728
0.22380559 -0.18114108 -0.01296806 -0.022628956 -0.15009862 0.09219097 -0.012670087 0.119737536
-0.15749753 0.21820763 -0.025400028 0.16095792 0.3125417 0.23660581 0.27194765 0.040287804
0.20641558 -0.1436162 0.14207563 0.30294052 -0.08642881 0.2458031 0.044858623 -0.14391185
-0.16658427 0.28647348 0.018869242 0.11497597 0.002928818 0.19974096 0.03527785 0.16824444
-0.21802223 0.25585264 0.3098859 -0.28559807 0.3046817 0.009128235 0.15148498 -0.14515887
0.233399 0.013584317 0.0043078656 -0.20488605 -0.16493464 -0.05741653 -0.1629945 0.21737716
-0.14909948 -0.21779063 -0.08048795 0.04636173 0.15029258 -0.11211862 -0.266822 -0.04042475
-0.045348562 0.20027411 0.059843667 0.19521262 -0.021892658 0.21819197 0.19187093 0.025006834
0.05315437 -0.1602388 -0.06047938 -0.20368084 0.2503374 -0.061710525 -0.2862126 -0.18322001
-0.13617052 0.16505648 -0.064368956 -0.18526031 -0.2999849 0.059459005 -0.16965222 0.1806478
0.124316804 -0.16932046 -0.22448927 -0.022547595 -0.09082836 0.2862772 -0.31510687 0.07350365
-0.16744587 -0.162034 -0.17554839 0.08924108 -0.047116358 -0.06223658 0.18696176 0.29998913
-0.21757504 0.24720746 -0.15460394 0.08359894 0.08148099 0.041545488 -0.07385253 -0.103059985
0.06931926 -0.24670057 0.008291668 0.088872164 -0.015816169 -0.09521493 0.17273718 0.0057563595
-0.042520646 0.041922975 0.044879183 -0.14013202 -0.032407362 0.02310156 -0.20352592 -0.17439793
-0.1343001 0.18483175 0.08822842 0.19172323 -0.054360315 0.0013412994 -0.028864296 0.3053194
-0.34637636 0.17585158 -0.1563478 -0.11324267 0.031792372 -0.03781651 0.18690746 -0.103547215
0.005448278 -0.26488233 -0.22917682 0.11261301 0.2421027 -0.09903413 -0.16071802 -0.11839825
